all_model/reg_model.pth (torch, 41759 bytes, 11 tensors)

emb_act.weight f4 [39, 7]
0	0xbed90f8a	-0.42394668
1	0xbe8eacb4	-0.27866137
2	0x3f886e52	1.0658667
3	0x3daf9352	0.08573021
4	0x3e981292	0.29701668
5	0x3f67d683	0.90561694
6	0x3e552202	0.20813754
7	0x8ec34cd1	-4.8145183e-30
8	0x8e3740f5	-2.2587767e-30
9	0x0ec8d22f	4.9506206e-30
10	0x8dbf1106	-1.1775382e-30
11	0x8eaaf05e	-4.21397e-30
12	0x8e317153	-2.1871498e-30
13	0x8e081ddf	-1.6777677e-30
14	0x3d963623	0.073345445
15	0x3a820db0	0.0009922292
16	0x3f91ec0d	1.1400162
17	0xbe07edc4	-0.13274294
18	0x3dbfde61	0.09368587
19	0x3d2ac332	0.04169006
20	0x3f8a020d	1.0781876
21	0xbf56041a	-0.8360001
22	0x3edb61ba	0.42847997
23	0x3e9cd25f	0.3062925
24	0xbe4aebd7	-0.19816528
25	0xbf082b90	-0.5319147
26	0x3e6e722e	0.23285744
27	0x3f3550ea	0.7082659
28	0x3f014b3d	0.5050543
29	0xbfea6559	-1.8312179
30	0x3ed2cd1e	0.41172117
31	0xbf4fa0fd	-0.81105024
32	0xbee972a8	-0.45595288
33	0xbe6f1631	-0.23348309
34	0x3ef283cb	0.47366175
35	0xbdd0b9fa	-0.10191722
36	0xbf44fef1	-0.7695151
37	0xbdb1b4cd	-0.08677063
38	0xbfd37658	-1.6520491
39	0xbfbce2f8	-1.4756765
40	0xbea4563d	-0.32097045
41	0x3f3306ca	0.69932234
42	0xbf3774b5	-0.71662456
43	0xbf970392	-1.1797965
44	0x3e47833c	0.19483656
45	0xbeadb7a8	-0.3392918
46	0xbedf9879	-0.43671015
47	0x3dad9623	0.08475902
48	0x3f4cc7e8	0.7999253
49	0x3e3a1247	0.18171035
50	0x3fa628dd	1.298122
51	0x3e4165d9	0.18886508
52	0xbf0b9a17	-0.54532
53	0x3eaa94b5	0.3331658
54	0x3fd36520	1.6515236
55	0x3ef64925	0.4810268
56	0x3ff0a663	1.8800777
57	0xbf1b71b9	-0.607204
58	0xbf614c80	-0.88007355
59	0x3f6c20d5	0.922376
60	0x3f8b1bdd	1.0867878
61	0x3f4b6fa3	0.7946722
62	0xbf45fafb	-0.7733609
63	0x3f9b5371	1.2134839
64	0x3f380b04	0.7189181
65	0xbf4cc2ff	-0.7998504
66	0x3f43c6be	0.7647513
67	0x3f274604	0.6534121
68	0x3e16494e	0.14676401
69	0xbe4638e9	-0.19357647
70	0xbe993b3a	-0.29928
71	0xbf8b06b0	-1.0861416
72	0xbfc6af46	-1.5522239
73	0xbf533772	-0.8250648
74	0x3f7b10b2	0.9807235
75	0xbe4a0fc9	-0.19732584
76	0x3f49976e	0.7874669
77	0xbe5f0bc1	-0.21781828
78	0xbf8a0dca	-1.0785458
79	0xbf4d3597	-0.80159897
80	0xbf0e5bf4	-0.5560906
81	0x3e899a29	0.26875427
82	0x3e27ae3f	0.16375063
83	0xbb0362fb	-0.002004801
84	0xbe58b7e5	-0.211639
85	0xbf7cc61b	-0.98739785
86	0x3f87c907	1.0608224
87	0xbfb62d49	-1.423257
88	0x3e18202c	0.14856023
89	0x3f52b9b6	0.8231462
90	0x3d0a583b	0.03377555
91	0x3fa63b8b	1.2986921
92	0x3e69cefc	0.22832865
93	0xbe87e10d	-0.26538888
94	0xbf879004	-1.0590825
95	0x3d04d43d	0.03242897
96	0x3fbd03d7	1.4766797
97	0x3ec080ed	0.37598363
98	0x3e005e7c	0.12536043
99	0x3e512016	0.20422396
100	0xbff1a11c	-1.8877292
101	0x3d92e25d	0.071720816
102	0x3f22c319	0.63578945
103	0xbe434566	-0.19069442
104	0x3bac3bce	0.0052561527
105	0x3e8003bb	0.25002846
106	0x3f92fcb1	1.1483365
107	0xbfd1014a	-1.6328518
108	0xbc18b794	-0.009321112
109	0x3f391d18	0.7231002
110	0x3ed6de85	0.41966644
111	0x3e071123	0.13190131
112	0xbfc7d607	-1.5612191
113	0x3ec03e8f	0.37547728
114	0x3ef29a54	0.47383368
115	0xbeba99ef	-0.36445567
116	0x3fc92e3c	1.5717235
117	0xbd8870f3	-0.06662168
118	0xbe9143f7	-0.28372166
119	0xbfe4f407	-1.7886971
120	0x3f1f7428	0.62286615
121	0xbf0a0e74	-0.53928304
122	0xbf403cad	-0.75092584
123	0xbc84f860	-0.016231716
124	0xbf27b4d8	-0.6551032
125	0x3f299719	0.6624618
126	0x3f6d8e71	0.92795473
127	0x3f6fa8c6	0.936169
128	0xbed9c087	-0.425297
129	0xbf820155	-1.0156657
130	0xbfb6eefa	-1.429168
131	0x3e0f5e2c	0.14000767
132	0x3f967bb7	1.1756505
133	0x3ef2d36c	0.47426927
134	0x40100aad	2.2506516
135	0x3f26a719	0.6509872
136	0xbeb6085a	-0.35553247
137	0xbf2c1f4f	-0.67235273
138	0xbce8d755	-0.02842299
139	0xbfa75890	-1.3073902
140	0xbe95772a	-0.29192477
141	0x3c8dd8bc	0.017315261
142	0xbe8795ba	-0.2648142
143	0x3ef00571	0.4687915
144	0x3f32ee7d	0.69895154
145	0xc007c1b8	-2.1211987
146	0xbf55af80	-0.83470917
147	0xbfb00f49	-1.3754665
148	0x3e0f7ec8	0.14013207
149	0xbf43591b	-0.7630784
150	0xbfce86ec	-1.6134925
151	0x3e9e04a8	0.30862927
152	0xbdf457cc	-0.119308084
153	0x3fae857d	1.3634487
154	0x3f9a0509	1.2032787
155	0x3e9a240e	0.30105633
156	0xbedb7ec1	-0.42870143
157	0xbf6de1b5	-0.92922527
158	0xbf0b58e0	-0.5443249
159	0x3f4e9070	0.80689144
160	0xc029d3d0	-2.653553
161	0xbd3e65ca	-0.046483792
162	0xbd8f831d	-0.0700743
163	0xc0051faf	-2.0800588
164	0x3ebb7161	0.3660994
165	0xc0056747	-2.0844285
166	0x3f926efe	1.1440122
167	0x3e0d0a60	0.13773489
168	0x3d9709d1	0.07374919
169	0xbf083361	-0.532034
170	0x3f231200	0.6369934
171	0x3ebbdc1b	0.36691365
172	0xbe4dcfb0	-0.20098758
173	0xbf07e3e0	-0.53082085
174	0xbf09d45b	-0.53839654
175	0xbd9ecb71	-0.07753647
176	0x3e3d8c65	0.18510588
177	0x3ece98b3	0.40350875
178	0x3f1ce2a4	0.61283326
179	0xbfaa80fc	-1.3320613
180	0xbd91dfc8	-0.07122761
181	0xbf3ea3df	-0.744688
182	0x3c6c4699	0.014421129
183	0xbec1c3c7	-0.3784468
184	0x3d3efdf4	0.046628907
185	0xc006cd68	-2.106287
186	0x3f0740ab	0.5283305
187	0xbf9415e5	-1.1569182
188	0xbf1dd168	-0.61647654
189	0x3fc19c43	1.5125812
190	0x3f0e9290	0.55692387
191	0x3e004a74	0.12528402
192	0x3b9fd23b	0.0048773563
193	0xbf292e30	-0.660861
194	0xbe8713c4	-0.26382267
195	0x3f648644	0.89267373
196	0x3e57897d	0.21048541
197	0xbe508735	-0.20364077
198	0xbeeb944a	-0.46011573
199	0x3fbfa8e1	1.4973413
200	0x3cdb4b32	0.026769254
201	0x3ef5bc2e	0.47995132
202	0x3f7031b8	0.93825865
203	0x3e9d87c8	0.30767655
204	0xbe7baa8f	-0.24576782
205	0xbf06dc44	-0.5267985
206	0x3fadd9f9	1.3582145
207	0x3da6dafb	0.08147236
208	0x3f157978	0.5838847
209	0x3f6aaf97	0.9167418
210	0xbf88cdc3	-1.0687793
211	0xbf908f6e	-1.1293771
212	0x3f12815e	0.5722865
213	0xbf9e59b5	-1.2371126
214	0xbf9efccf	-1.2420901
215	0xbfab649b	-1.3390077
216	0xbf871601	-1.055359
217	0xbf83a6c4	-1.0285268
218	0x3eb5a803	0.35479745
219	0x3e432344	0.19056422
220	0xc005e613	-2.0921676
221	0xbf257f05	-0.6464694
222	0xc00675f9	-2.1009505
223	0x3f327f0a	0.69725096
224	0xbf22b9aa	-0.6356455
225	0xbdaf43ca	-0.085578516
226	0x3f3cc060	0.7373104
227	0xbf32e4da	-0.6988045
228	0xbd96e890	-0.073685765
229	0xbf84ca79	-1.037429
230	0x3eebb1d4	0.4603411
231	0x3d2e091f	0.042489167
232	0x3eb9c5ad	0.36283627
233	0xbebce50d	-0.36893502
234	0x3dffa70b	0.12483033
235	0xbe73ebb5	-0.23820384
236	0x3fad462a	1.3537037
237	0xbe0349e8	-0.12821162
238	0xbf98e1ee	-1.1943948
239	0x3fd517af	1.6647853
240	0xbef59bc2	-0.47970396
241	0x3f480a66	0.78140867
242	0xbf1b3518	-0.6062789
243	0x3f58d1d5	0.8469518
244	0x3e215be1	0.15757705
245	0xbf849cf2	-1.0360396
246	0x3e43c268	0.19117129
247	0xbf01887b	-0.5059888
248	0x3fa9e043	1.3271564
249	0xbf71d81f	-0.944704
250	0x3f90e63f	1.1320266
251	0x3f3a98fb	0.7288968
252	0xbe883c71	-0.26608613
253	0xbf9b682a	-1.2141163
254	0xbe6f290b	-0.233555
255	0xbf925f4b	-1.1435331

lstm_act.weight_ih_l0 f4 [100, 7]
0	0x3f0e9691	0.55698496
1	0x3d22d0a9	0.039749775
2	0xbf85c4d9	-1.0450698
3	0xbee5538c	-0.44790304
4	0xbee1349b	-0.43985447
5	0x3e17b8af	0.14816545
6	0x3d926822	0.07148768
7	0xbe6da2a2	-0.2320657
8	0x3ef79b2e	0.4836058
9	0x3cd366bc	0.025805824
10	0xbf176c27	-0.591494
11	0x3e8436eb	0.2582315
12	0xbecf9e01	-0.40550235
13	0x3f149cef	0.5805196
14	0x3f4db0f6	0.80348146
15	0x3f8f6195	1.1201655
16	0x3e097d2d	0.13426657
17	0x3f778641	0.9668923
18	0xbe864978	-0.26227927
19	0x3fc6c009	1.5527354
20	0x3f832279	1.0244895
21	0xbfb2999f	-1.3953131
22	0xbf01df0b	-0.5073096
23	0x3e6044d6	0.21901259
24	0xbfc96f44	-1.573708
25	0x3c961d90	0.018324643
26	0xbe7f69f0	-0.24942756
27	0xbdce3200	-0.100681305
28	0x3df26666	0.11835937
29	0xbf7edad7	-0.99552673
30	0x3ef07bb6	0.46969384
31	0xbefda87f	-0.49542615
32	0xbfa55d69	-1.2919132
33	0x3ece58dd	0.40302172
34	0x3eac85b5	0.3369576
35	0xbee7659a	-0.45194703
36	0xbe206db2	-0.15666845
37	0x3e5ecf5f	0.21758793
38	0xbe319db2	-0.17345312
39	0x3ec429da	0.3831318
40	0xbf6cc1c7	-0.9248318
41	0xbe729626	-0.2369009
42	0x3e9d79ff	0.30757138
43	0xbf12eb4f	-0.573903
44	0x3f3c613b	0.7358586
45	0xbf3134a5	-0.69220954
46	0xbdf32f44	-0.118742496
47	0xbfcc3f8b	-1.5956892
48	0x3e9abf11	0.30223897
49	0xbfbd22e0	-1.4776268
50	0xbe46d537	-0.19417273
51	0x3ed03cce	0.4067139
52	0xbf92a19f	-1.1455573
53	0x3ef7e4a7	0.48416635
54	0xbf0fccac	-0.5617168
55	0x3e89d24d	0.2691826
56	0x3de932d0	0.11386645
57	0x3f2eef99	0.68334347
58	0xbe47dc19	-0.19517554
59	0x3ee397d5	0.44451776
60	0x3d7b3f4e	0.06133967
61	0x3f14401e	0.57910335
62	0x3f557722	0.8338491
63	0xbeb6dc33	-0.35714874
64	0x3e04a485	0.12953384
65	0x3d36654b	0.044530194
66	0xbf676df3	-0.90402144
67	0x3c65a517	0.014016411
68	0x3f38a873	0.72132033
69	0x3edb0d1b	0.42783436
70	0x3ea24a04	0.31697094
71	0xbe334f99	-0.17510833
72	0xbe131f5a	-0.14367428
73	0xbc9312d6	-0.017953318
74	0xbf538986	-0.8263172
75	0x3d9a42b4	0.07532254
76	0x3ae73056	0.0017638307
77	0x3dfd0b99	0.12355728
78	0x3d9e536f	0.077307574
79	0x3e99cc89	0.3003886
80	0xbeb57b5e	-0.35445684
81	0xbfbfd0fc	-1.4985652
82	0xbef03ed2	-0.46922928
83	0xbf786c15	-0.9703992
84	0x3fa38838	1.2775946
85	0xbe1cb14f	-0.15302013
86	0xbf727c35	-0.94720775
87	0x3dd15b65	0.1022251
88	0x3dba29f2	0.09090032
89	0x3eb87248	0.3602469
90	0xbd586f91	-0.052840773
91	0x3f495de0	0.78658867
92	0xbe3d05e7	-0.18459283
93	0x3f00da7b	0.50333375
94	0xbe82ebf2	-0.25570637
95	0x3f24203b	0.6411168
96	0x3f4eec0d	0.80828935
97	0xbed49e7a	-0.41527158
98	0xbe6b5e4f	-0.22985195
99	0x3f6ab44b	0.91681355
100	0xbee574f3	-0.44815788
101	0xbf0fcbd0	-0.5617037
102	0x3ec9904c	0.39367902
103	0x3ed025b8	0.40653777
104	0x3e53a91c	0.20669979
105	0x3ea9e56e	0.33182853
106	0x3e85964e	0.26091236
107	0xbf7ac29f	-0.9795322
108	0x3f0b8944	0.54506326
109	0xbf476ba9	-0.7789865
110	0x3f018fa8	0.5060983
111	0x3f455aed	0.77091867
112	0x3e4d0958	0.20023096
113	0xbe037134	-0.12836152
114	0xbebe137a	-0.37124234
115	0x3f1a738b	0.60332555
116	0xbeef9045	-0.46789756
117	0x3e8e9287	0.27846166
118	0x3de597af	0.11210572
119	0xbe9b38ed	-0.30316868
120	0xbf8209b7	-1.0159215
121	0xbf3bc6e8	-0.7335038
122	0xbec3bd29	-0.38230255
123	0xbf3fd562	-0.7493497
124	0x3eae2541	0.34012797
125	0x3eb2f026	0.34948844
126	0x3e306d40	0.17229176
127	0xbee94935	-0.45563665
128	0x3e8e487e	0.27789682
129	0xbfbbedb7	-1.468192
130	0xbd9a1bea	-0.075248554
131	0x3ea9baaa	0.33150226
132	0x3ec2e7bd	0.38067427
133	0xbe564b59	-0.2092718
134	0x3d9a9b3b	0.07549139
135	0x3eaec222	0.34132487
136	0xbec4d56f	-0.38444087
137	0xbf46a05e	-0.7758845
138	0x3e9b28f3	0.3030468
139	0x3f1e4939	0.6183048
140	0x3f4a73e5	0.7908309
141	0x3c8ed48b	0.017435333
142	0xbeec8639	-0.46196154
143	0xbc711751	-0.014715032
144	0x3e480b59	0.19535579
145	0x3f0fc2f1	0.5615683
146	0xbef9d7c8	-0.4879744
147	0xbe6c20f5	-0.23059447
148	0xbeb4cd23	-0.35312757
149	0x3eba13b7	0.36343166
150	0xbf3288c6	-0.6973995
151	0x3dcec51f	0.100961916
152	0xbe8eb5e7	-0.27873155
153	0xbf15327a	-0.58280146
154	0xbe0f95a0	-0.14021921
155	0x3e88a30a	0.2668689
156	0xbebc8d39	-0.36826494
157	0x3f1633bc	0.5867269
158	0xbe2afbcf	-0.1669762
159	0x3ebbb70f	0.366631
160	0x3e7b5581	0.24544336
161	0xbed587c9	-0.41705158
162	0x3f760850	0.96106434
163	0xbcd69380	-0.02619338
164	0x3edd40d2	0.43213516
165	0x3e488550	0.19582105
166	0xbf1ccf48	-0.61253786
167	0xbfa50736	-1.2892826
168	0x3e3adcd5	0.18248303
169	0x3f533e74	0.8251717
170	0xbf52f8a0	-0.8241062
171	0xbd87b4b0	-0.0662626
172	0x3e8503ae	0.2597937
173	0x3f91bc4a	1.1385586
174	0x3f148bc7	0.58025783
175	0xbf0dc264	-0.5537474
176	0xbf466b58	-0.77507544
177	0x3dd1c64a	0.10242899
178	0x3db3d25f	0.087803595
179	0x3e813ebc	0.25243175
180	0xbe6cb818	-0.23117101
181	0xbea302ea	-0.3183816
182	0x3e95b543	0.29239854
183	0xbce5e67f	-0.02806401
184	0x3d2100ed	0.039307524
185	0x3d955c63	0.07293012
186	0x3ea8837e	0.3291282
187	0x3d209c52	0.03921158
188	0xbf9644e2	-1.1739771
189	0xbf9fe78f	-1.2492541
190	0xbfb1a0c9	-1.3877193
191	0x3d2e8dda	0.04261575
192	0xbf05d2df	-0.5227489
193	0x3f130262	0.5742551
194	0xbfd487f6	-1.6603992
195	0xbeaf0d2e	-0.34189743
196	0x3f938b7b	1.1526941
197	0x3e062922	0.13101628
198	0x3d86fea1	0.06591535
199	0x3f147bf9	0.5800167
200	0xbf29b97b	-0.66298646
201	0xbe70dfcb	-0.2352287
202	0xbe405177	-0.18781076
203	0x3ecd48b1	0.40094522
204	0x3f5673f5	0.83770686
205	0xbf128c30	-0.5724516
206	0x3db73d5b	0.089472495
207	0x3f2bfdfe	0.67184436
208	0x3ef7f4e9	0.4842904
209	0x3dc22f94	0.09481731
210	0x3cbf707b	0.023369065
211	0x3f524c74	0.8214791
212	0xbedc2118	-0.42994
213	0xbd0068ad	-0.031349827
214	0x3bc66ffe	0.006055831
215	0x3feb7d42	1.8397601
216	0x3f6aa9d3	0.9166538
217	0x3ea6f861	0.32611373
218	0x3f5b999b	0.8578126
219	0xbe75612a	-0.23962846
220	0x3f243c38	0.64154387
221	0xbf1427a5	-0.5787299
222	0x3f7b8e53	0.98264045
223	0x3e7c56dc	0.24642509
224	0x3f6482c7	0.8926205
225	0x3ed9fa97	0.42573997
226	0xbf797de6	-0.9745773
227	0x3f333921	0.70009047
228	0xbe6a8cb9	-0.22905244
229	0x3e77fa20	0.24216509
230	0x3e1ecc53	0.15507631
231	0xbe6b8782	-0.23000911
232	0xbea07e30	-0.31346273
233	0x3ea5d361	0.32387832
234	0x3f003d66	0.50093687
235	0xbd9bd563	-0.0760906
236	0xbcbf6ffc	-0.023368828
237	0x3d22c305	0.039736766
238	0x3e8d81f4	0.2763821
239	0xbe403be0	-0.1877284
240	0xbebe4291	-0.3716016
241	0x3eb96092	0.3620649
242	0x3ed60935	0.418039
243	0x3eb1e285	0.34743133
244	0xbda3472c	-0.07972559
245	0xbeb0d0e4	-0.3453437
246	0xbedb7bf5	-0.4286801
247	0x3d9b74e8	0.075906575
248	0xbe29f5d7	-0.16597687
249	0xbe14ad09	-0.14519133
250	0xbe282217	-0.16419254
251	0x3c801ecb	0.015639683
252	0x3de692fc	0.11258504
253	0x3a377c3d	0.0006999409
254	0x3ed21ec0	0.41039085
255	0x3f5b2628	0.85605097

lstm_act.weight_hh_l0 f4 [100, 25]
0	0xbf11b90e	-0.56922996
1	0x3ebbfd7f	0.3671684
2	0x3e4bfebc	0.19921392
3	0xbe62feb7	-0.22167479
4	0x3f52348c	0.8211143
5	0xbf3d69b4	-0.73989415
6	0xbe6a5558	-0.22884119
7	0x3c170214	0.009216804
8	0xbe9c171a	-0.30486375
9	0xbe2f92b9	-0.17145814
10	0xbeb227f7	-0.34796116
11	0xbcdc5771	-0.026897164
12	0x3e5c3f9b	0.21508639
13	0xbec4ac24	-0.38412583
14	0x3e5242f5	0.20533355
15	0x3c16ae20	0.009196788
16	0x3eec24a2	0.461217
17	0xbf8a6d20	-1.0814552
18	0xbe5c1079	-0.21490659
19	0xbef5ef47	-0.48034117
20	0x3dd97ed5	0.106198944
21	0x3f7fb510	0.99885654
22	0x3e79fbfc	0.2441253
23	0xbd6a3b00	-0.057185173
24	0x3d79c769	0.060981188
25	0xbe891a25	-0.2677776
26	0x3c452182	0.012031915
27	0x3f1499d7	0.5804724
28	0x3e7ae4df	0.2450137
29	0xbea5b941	-0.323679
30	0xbebb48f2	-0.3657909
31	0x3e79a007	0.24377452
32	0x3d88c493	0.066781186
33	0xbd8c6b2f	-0.06856381
34	0x3e20b506	0.15694055
35	0x3e461ab5	0.19346125
36	0x3e15aba7	0.14616261
37	0xbc7f4d72	-0.015582429
38	0x3edf1af2	0.43575245
39	0x3caecf0e	0.021338966
40	0x3d0e8705	0.034796733
41	0x3e83839a	0.25686342
42	0xbe04464e	-0.12917444
43	0xbe8dc4e9	-0.27689293
44	0xbe8e2885	-0.2776529
45	0xbdff413f	-0.124636166
46	0xbe684689	-0.22683157
47	0x3c36d1f2	0.011158453
48	0xbe7ebdf7	-0.24877153
49	0x3e4a8269	0.1977631
50	0xbd3914db	-0.045185905
51	0x3f0c7087	0.54859203
52	0x3eb4bae4	0.35298836
53	0x3f0af67d	0.5428236
54	0xbf21ecbf	-0.6325187
55	0xbf2477e7	-0.64245456
56	0xbdbd720f	-0.092502706
57	0x3ea0d265	0.31410518
58	0xbddc8e4c	-0.107693285
59	0xbe8ff052	-0.28113037
60	0xbe191144	-0.14947993
61	0xbe4fa93a	-0.20279399
62	0xbee0cbfe	-0.43905634
63	0x3e401ed6	0.18761763
64	0x3e6a232b	0.22864978
65	0xbee5d003	-0.44885263
66	0x3e97d081	0.29651263
67	0xbea3e184	-0.32007992
68	0x3dbc7ba6	0.092032716
69	0x3cbbf8e4	0.022945829
70	0xbd953b4e	-0.07286702
71	0xbd205dbf	-0.039151903
72	0x3d8075de	0.062724814
73	0x3e92356f	0.28556392
74	0xbec5dee0	-0.38646603
75	0xbc61dc31	-0.013785408
76	0xbebe7ee2	-0.3720618
77	0x3f1cff69	0.61327225
78	0xbf38a208	-0.7212224
79	0xbefb5e38	-0.4909532
80	0xbe9f0a38	-0.31062484
81	0x3f09e323	0.5386221
82	0x3e263cdf	0.16234158
83	0xbeb37968	-0.35053563
84	0xbe17d1b9	-0.14826097
85	0x3eae3be5	0.3403007
86	0x3e9601ed	0.29298344
87	0xbf1d9bdc	-0.6156595
88	0x3d373bef	0.04473489
89	0x3dc02808	0.09382635
90	0xbd149be5	-0.036281485
91	0x3ed28b88	0.4112208
92	0xbf28856e	-0.658286
93	0x3d9b2c20	0.075767756
94	0xbf11ec56	-0.57001245
95	0x3cb0f6e3	0.0216021
96	0xbe85ea62	-0.26155382
97	0xbf12b85e	-0.5731257
98	0x3f71da4a	0.9447371
99	0xbe185e4e	-0.14879724
100	0xbf04db1c	-0.51896834
101	0x3e012114	0.12610275
102	0xbe648792	-0.22317341
103	0x3e632a0a	0.22184005
104	0x3f43642e	0.7632474
105	0x3d741cea	0.059597887
106	0x3e9ea1cf	0.30982825
107	0xbf19746f	-0.5994329
108	0xbf08cd9f	-0.5343875
109	0x3ecc9a1b	0.39961323
110	0x3ee57456	0.4481532
111	0x3f2d8f71	0.67797
112	0xbe2094c6	-0.15681753
113	0x3dfbca9a	0.122945026
114	0x3d36e0a8	0.044647843
115	0x3da1daaa	0.07903035
116	0x3ec3ec9c	0.38266456
117	0x3e7945be	0.24343011
118	0x3da5c5b4	0.080943495
119	0x3e7bfb44	0.24607569
120	0x3ea0b2e8	0.31386495
121	0xbbc10141	-0.005890042
122	0x3edee901	0.43537143
123	0xbdbede7c	-0.09319779
124	0x3ea93cc9	0.33054188
125	0xbec5a8cb	-0.3860534
126	0x3da3fe6c	0.080075115
127	0xbe009aa2	-0.12558988
128	0xbdb01393	-0.085974835
129	0xbe4b7ca3	-0.19871764
130	0xbfd81201	-1.6880494
131	0xbd9605f1	-0.07325352
132	0xbcd9af52	-0.026572857
133	0x3e2b9135	0.16754611
134	0x3e01c997	0.12674557
135	0x3eb865ac	0.3601507
136	0xbf63fcdc	-0.8905771
137	0x3e1f5d02	0.15562823
138	0x3e21e98e	0.1581175
139	0xbf1a6edb	-0.603254
140	0xbe9b14b2	-0.30289227
141	0xbed1a7e4	-0.40948403
142	0x3d596558	0.053075165
143	0xbee4c268	-0.4467957
144	0xbd210489	-0.039310966
145	0xbc650c7f	-0.01398003
146	0x3e658b64	0.22416455
147	0x3eecb224	0.4622966
148	0xbddc36f4	-0.10752669
149	0xbe93ddd1	-0.2888017
150	0x3e006230	0.12537456
151	0x3ded3b6c	0.115835994
152	0xbdcd4720	-0.10023332
153	0x3e10c5da	0.14137974
154	0x3ebdbb8f	0.37057158
155	0x3e0508d9	0.12991656
156	0xbf2bd829	-0.6712671
157	0xbed95db8	-0.42454314
158	0x3c9b49c0	0.018956065
159	0xbe3712b4	-0.17878228
160	0xbeb437d0	-0.35198832
161	0xbcaeacf8	-0.021322712
162	0x3dcc6242	0.09979679
163	0x3dc9c10d	0.09851275
164	0xbe8833c0	-0.26601982
165	0x3e37dd47	0.17955504
166	0xbcb72e4d	-0.022360945
167	0xbeac8909	-0.336983
168	0xbc62c9ab	-0.013842027
169	0xbd1055d8	-0.035238117
170	0x3e0e3a56	0.13889441
171	0xbf263116	-0.6491865
172	0x3dd19f56	0.10235469
173	0xbd230fef	-0.039810117
174	0xbd9108e3	-0.07081773
175	0x3e392217	0.1807941
176	0x3e134743	0.14382653
177	0x3eff7360	0.49892712
178	0xbec396b5	-0.38200918
179	0xbc0263cf	-0.007958367
180	0xbdf37bc4	-0.11888841
181	0x3f75d18a	0.96022856
182	0x3dbb1bfa	0.091361955
183	0xbf31a470	-0.69391537
184	0xbe8f3b14	-0.2797476
185	0xbd129909	-0.035790477
186	0x3e24e618	0.16103399
187	0xbf3258f4	-0.6966698
188	0x3e85c1e8	0.261245
189	0x3ecfe035	0.40600744
190	0xbe445971	-0.19174744
191	0x3ebd7649	0.37004307
192	0xbecaa320	-0.3957758
193	0x3e84b6aa	0.25920612
194	0xbf0cc450	-0.5498705
195	0x3d34464c	0.044012353
196	0xbf449703	-0.76792926
197	0x3e15c87f	0.14627264
198	0x3e30471a	0.17214623
199	0x3e5afb47	0.21384917
200	0x3d44ffee	0.048095636
201	0x3d62161a	0.05519686
202	0xbec0a547	-0.37626097
203	0xbf28ee4d	-0.6598862
204	0x3f2d8873	0.6778633
205	0xbf246aa3	-0.64225215
206	0xbd0e076e	-0.034675054
207	0xbe692094	-0.22766334
208	0x3c6c5aa1	0.0144259045
209	0xbe6b7306	-0.22993097
210	0xbd9ba72e	-0.07600246
211	0x3ecb5bbf	0.39718434
212	0xbe945141	-0.28968242
213	0x3f2f094e	0.6837357
214	0x3ec2e736	0.38067025
215	0x3e1c7ef1	0.152828
216	0x3e559f28	0.20861495
217	0x3dafb36f	0.08579146
218	0x3cfd482b	0.030918201
219	0xbf118d22	-0.56855977
220	0xbf2b69c2	-0.6695825
221	0x3e9c8e9e	0.30577558
222	0x3f6c4b79	0.9230266
223	0xbe59cdb0	-0.2126987
224	0x3e7f883a	0.2495431
225	0xbea71a59	-0.3263729
226	0xbd891ee6	-0.066953465
227	0xbd49c349	-0.049258504
228	0xbe4649f7	-0.19364153
229	0xbf1085d4	-0.56454206
230	0xbf8ba12f	-1.0908564
231	0x3e9e8270	0.3095889
232	0x3cfea806	0.03108598
233	0xbd897e5f	-0.067135565
234	0x3cd49d58	0.025953934
235	0xbe986d25	-0.2977077
236	0xbece0623	-0.40239057
237	0xbe5ca838	-0.21548545
238	0x3e8433f3	0.25820884
239	0x3dace4a2	0.08442046
240	0x3cd82e9d	0.026389414
241	0xbee68114	-0.45020354
242	0x3d2ecc60	0.042675376
243	0xbee188e7	-0.4404976
244	0xbd0758ee	-0.033043794
245	0x3e2e86b6	0.17043576
246	0x3e8dc96f	0.27692744
247	0x3e8a010d	0.26953927
248	0x3e450180	0.19238853
249	0xbcee7542	-0.029108647
250	0x3e863028	0.26208615
251	0x3dc5d369	0.09659464
252	0xbd487b85	-0.048945922
253	0x3dcfaa05	0.101398505
254	0x3e8fe444	0.2810384
255	0xbd0cfe1f	-0.034422036

lstm_act.bias_ih_l0 f4 [100]
0	0x3ed705fe	0.4199676
1	0x3eaf3003	0.34216318
2	0x3d9c46ad	0.07630668
3	0xbd55d9e9	-0.05220977
4	0x3f207045	0.6267131
5	0x3e0a95f6	0.13533768
6	0xbe7def9e	-0.24798438
7	0x3e1ade91	0.15123965
8	0x3f72d943	0.94862765
9	0x3f576134	0.84132695
10	0x3ea4c761	0.32183364
11	0x3e7d0c45	0.24711712
12	0x3e8f6a36	0.2801072
13	0x3ec1149f	0.37711045
14	0x3f28b8d3	0.6590702
15	0x3eca3f79	0.3950155
16	0x3f6801a8	0.9062753
17	0x3f2dc5a9	0.6787973
18	0x3f50ad76	0.8151468
19	0x3f64a33a	0.89311564
20	0x3e997d16	0.29978245
21	0x3ebaa387	0.36452886
22	0x3f5ec03e	0.8701209
23	0x3f12313d	0.5710638
24	0x3f0436d3	0.51646155
25	0xbe4aad58	-0.19792688
26	0xbd63f8cf	-0.055657204
27	0x3ed2c1f6	0.41163605
28	0x3e4017ea	0.18759122
29	0xbe81fba0	-0.25387287
30	0x3ecc2d0e	0.39878124
31	0x3e618a2e	0.22025368
32	0x3d38de42	0.045133837
33	0xbf0a8d37	-0.54121727
34	0xbeafdfc5	-0.3435041
35	0x3e9aca11	0.3023229
36	0xbdf8d4dd	-0.121499754
37	0xbe0eb835	-0.13937457
38	0x3e93b4a0	0.28848743
39	0xbeb33f2c	-0.35009134
40	0x3db68e00	0.08913803
41	0xbf0023cc	-0.5005462
42	0xbe8c5436	-0.27407998
43	0xbed30d74	-0.412212
44	0xbeadf74a	-0.3397773
45	0x3c2984d3	0.010346609
46	0x3f2c1951	0.6722613
47	0xbde17f83	-0.11010649
48	0xbe7790af	-0.24176286
49	0xbe3bbeec	-0.1833455
50	0xbece0d43	-0.40244493
51	0xbe26e3f9	-0.16297902
52	0xbd13d106	-0.036088012
53	0xbe6f2e91	-0.23357607
54	0x3d8b3ae1	0.0679834
55	0xbf06aa66	-0.5260376
56	0x3df1a991	0.1179992
57	0xbd45fd23	-0.048337113
58	0xbe62010c	-0.22070712
59	0xbd9b87fd	-0.07594297
60	0x3e5525fb	0.2081527
61	0x3e597e8f	0.21239685
62	0xbe619eda	-0.22033253
63	0x3e9419bf	0.28925893
64	0xbe57be4c	-0.21068686
65	0xbefcda16	-0.49385136
66	0xbdc73e81	-0.097287185
67	0xbec6b901	-0.38813022
68	0xbe2ea2ca	-0.17054287
69	0xbeccf7b9	-0.40032747
70	0xbe05f224	-0.1308065
71	0x3ea1e143	0.31617174
72	0x3e8fc4aa	0.2807973
73	0xbd32bdd9	-0.043638084
74	0xbea2a63a	-0.31767446
75	0x3f22686d	0.6344059
76	0x3ea7d137	0.32776806
77	0x3f2ab564	0.6668303
78	0x3f0327ae	0.5123242
79	0x3f86e787	1.0539407
80	0x3f50fdc8	0.8163724
81	0x3ecfb1e5	0.4056541
82	0x3f0ff8e0	0.5623913
83	0x3fa5e0fb	1.2959284
84	0x3f6d2b53	0.9264423
85	0x3e9ce4c6	0.3064329
86	0x3f4a6550	0.7906084
87	0x3ebea3b1	0.37234262
88	0x3f4d17f4	0.80114675
89	0x3f3e3adb	0.74308556
90	0x3f5a7e74	0.853492
91	0x3f82c8b1	1.0217496
92	0x3f371729	0.71519715
93	0x3f276d5a	0.6540123
94	0x3f76b3dc	0.96368194
95	0x3ef191b1	0.47181466
96	0x3f1d85d0	0.61532307
97	0x3f67caac	0.9054363
98	0x3f5ff9d7	0.874906
99	0x3f889d41	1.067299

lstm_act.bias_hh_l0 f4 [100]
0	0x3ed705fe	0.4199676
1	0x3eaf3003	0.34216318
2	0x3d9c46ad	0.07630668
3	0xbd55d9e9	-0.05220977
4	0x3f207045	0.6267131
5	0x3e0a95f6	0.13533768
6	0xbe7def9e	-0.24798438
7	0x3e1ade91	0.15123965
8	0x3f72d943	0.94862765
9	0x3f576134	0.84132695
10	0x3ea4c761	0.32183364
11	0x3e7d0c45	0.24711712
12	0x3e8f6a36	0.2801072
13	0x3ec1149f	0.37711045
14	0x3f28b8d3	0.6590702
15	0x3eca3f79	0.3950155
16	0x3f6801a8	0.9062753
17	0x3f2dc5a9	0.6787973
18	0x3f50ad76	0.8151468
19	0x3f64a33a	0.89311564
20	0x3e997d16	0.29978245
21	0x3ebaa387	0.36452886
22	0x3f5ec03e	0.8701209
23	0x3f12313d	0.5710638
24	0x3f0436d3	0.51646155
25	0xbe4aad58	-0.19792688
26	0xbd63f8cf	-0.055657204
27	0x3ed2c1f6	0.41163605
28	0x3e4017ea	0.18759122
29	0xbe81fba0	-0.25387287
30	0x3ecc2d0e	0.39878124
31	0x3e618a2e	0.22025368
32	0x3d38de42	0.045133837
33	0xbf0a8d37	-0.54121727
34	0xbeafdfc5	-0.3435041
35	0x3e9aca11	0.3023229
36	0xbdf8d4dd	-0.121499754
37	0xbe0eb835	-0.13937457
38	0x3e93b4a0	0.28848743
39	0xbeb33f2c	-0.35009134
40	0x3db68e00	0.08913803
41	0xbf0023cc	-0.5005462
42	0xbe8c5436	-0.27407998
43	0xbed30d74	-0.412212
44	0xbeadf74a	-0.3397773
45	0x3c2984d3	0.010346609
46	0x3f2c1951	0.6722613
47	0xbde17f83	-0.11010649
48	0xbe7790af	-0.24176286
49	0xbe3bbeec	-0.1833455
50	0xbece0d43	-0.40244493
51	0xbe26e3f9	-0.16297902
52	0xbd13d106	-0.036088012
53	0xbe6f2e91	-0.23357607
54	0x3d8b3ae1	0.0679834
55	0xbf06aa66	-0.5260376
56	0x3df1a991	0.1179992
57	0xbd45fd23	-0.048337113
58	0xbe62010c	-0.22070712
59	0xbd9b87fd	-0.07594297
60	0x3e5525fb	0.2081527
61	0x3e597e8f	0.21239685
62	0xbe619eda	-0.22033253
63	0x3e9419bf	0.28925893
64	0xbe57be4c	-0.21068686
65	0xbefcda16	-0.49385136
66	0xbdc73e81	-0.097287185
67	0xbec6b901	-0.38813022
68	0xbe2ea2ca	-0.17054287
69	0xbeccf7b9	-0.40032747
70	0xbe05f224	-0.1308065
71	0x3ea1e143	0.31617174
72	0x3e8fc4aa	0.2807973
73	0xbd32bdd9	-0.043638084
74	0xbea2a63a	-0.31767446
75	0x3f22686d	0.6344059
76	0x3ea7d137	0.32776806
77	0x3f2ab564	0.6668303
78	0x3f0327ae	0.5123242
79	0x3f86e787	1.0539407
80	0x3f50fdc8	0.8163724
81	0x3ecfb1e5	0.4056541
82	0x3f0ff8e0	0.5623913
83	0x3fa5e0fb	1.2959284
84	0x3f6d2b53	0.9264423
85	0x3e9ce4c6	0.3064329
86	0x3f4a6550	0.7906084
87	0x3ebea3b1	0.37234262
88	0x3f4d17f4	0.80114675
89	0x3f3e3adb	0.74308556
90	0x3f5a7e74	0.853492
91	0x3f82c8b1	1.0217496
92	0x3f371729	0.71519715
93	0x3f276d5a	0.6540123
94	0x3f76b3dc	0.96368194
95	0x3ef191b1	0.47181466
96	0x3f1d85d0	0.61532307
97	0x3f67caac	0.9054363
98	0x3f5ff9d7	0.874906
99	0x3f889d41	1.067299

lstm_act.weight_ih_l1 f4 [100, 25]
0	0x3e8f7347	0.28017637
1	0xbf1984a8	-0.5996804
2	0xbf2fe354	-0.6870625
3	0xbe35ccd0	-0.17753911
4	0x3e0d6351	0.13807417
5	0xbea619ed	-0.32441655
6	0xbab391ad	-0.0013700031
7	0xbed6f2ef	-0.4198222
8	0x3f1d186e	0.613654
9	0xbf4c02ec	-0.7969196
10	0xbf12b7d3	-0.57311743
11	0x3efbfc5f	0.4921598
12	0x3f2fda35	0.6869233
13	0xbf3aed3b	-0.73018235
14	0x3e6dc61a	0.23220101
15	0x3efb7154	0.491099
16	0xbe61a9d3	-0.22037439
17	0x3ec8e744	0.39238942
18	0x3e463852	0.19357422
19	0xbe7a30e6	-0.24432716
20	0xbeee8912	-0.4658895
21	0x3f2596ac	0.6468303
22	0xbf552d83	-0.8327257
23	0xbf87c562	-1.0607111
24	0xbe9b2b55	-0.30306497
25	0x3e82e355	0.25564066
26	0x3ef8da2f	0.4860396
27	0xbf310032	-0.69140923
28	0xbdde6860	-0.10859752
29	0x3f0e7f4d	0.55662996
30	0xbf4a0f0a	-0.789292
31	0x3d99e758	0.075148284
32	0x3e685224	0.22687584
33	0x3d89edeb	0.067348324
34	0xbed3bbc3	-0.41354188
35	0x3f00ba0e	0.50283897
36	0x3ebae0c7	0.36499617
37	0x3f0d3173	0.5515358
38	0x3f3314b9	0.69953495
39	0x3e3b32cb	0.18281095
40	0x3ee480c1	0.4462948
41	0x3e92eae2	0.28694826
42	0xbdb3df83	-0.08782866
43	0x3e0a4f6f	0.13506864
44	0xbf10561c	-0.5638139
45	0xbe4615fd	-0.19344325
46	0x3f811fe5	1.0087858
47	0xbe0fdb62	-0.14048532
48	0xbdf1fe87	-0.11816125
49	0x3eec8d86	0.46201724
50	0x3f4bc8dc	0.7960336
51	0x3ef00e87	0.46886083
52	0x3f1be473	0.6089546
53	0xbed4bac0	-0.4154873
54	0x3f4da2aa	0.8032633
55	0xbec5806d	-0.38574544
56	0xbeb9fc4c	-0.363253
57	0x3c956954	0.0182387
58	0x3f6e2c55	0.93036395
59	0xbea1aa02	-0.31575018
60	0x3db42838	0.087967336
61	0x3c047b51	0.008086042
62	0x3f06550e	0.52473533
63	0xbeceb555	-0.4037272
64	0xbeebb6be	-0.4603786
65	0x3e022200	0.12708282
66	0x3e8cf392	0.2752958
67	0xbdacc11d	-0.08435271
68	0x3f2182cd	0.6309021
69	0xbf9b3a7c	-1.2127223
70	0x3ec1af90	0.37829256
71	0x3ee9293c	0.45539272
72	0xbf7bb2f9	-0.98319966
73	0xbe9f4aa4	-0.31111634
74	0x3f07a877	0.5299143
75	0xbf3320a7	-0.699717
76	0x3fbe5d6a	1.4872258
77	0x3eae8c6d	0.3409151
78	0x3e58b791	0.21163775
79	0x3ee703a9	0.4511998
80	0xbe864d3f	-0.2623081
81	0x3edf98b8	0.43671203
82	0x3f37dbf3	0.7181999
83	0xbf218e45	-0.6310771
84	0xbf6dd0e7	-0.92896885
85	0xbde5acb2	-0.1121458
86	0xbed9db7b	-0.42550263
87	0x3e9f313d	0.31092253
88	0xbf058d48	-0.52168703
89	0x3f41e07c	0.7573316
90	0xbdbfec9a	-0.093713
91	0x3e2c23a9	0.16810478
92	0x3ec5e2c0	0.3864956
93	0x3fcacd31	1.584387
94	0x3c4567da	0.012048686
95	0xbf2e055d	-0.67976934
96	0xbf01863a	-0.5059544
97	0x3e131734	0.1436432
98	0xbf89fdaa	-1.0780537
99	0x3f461e7e	0.7739028
100	0x3f7ead09	0.9948278
101	0x3cec3427	0.028833462
102	0xbe19f8d7	-0.15036331
103	0x3e890ec4	0.26769078
104	0x3f1cf5ee	0.6131276
105	0xbf0059f7	-0.50137275
106	0x3d21282c	0.03934495
107	0xbe8b676b	-0.2722734
108	0x3f4e1b46	0.80510366
109	0xbf17a73b	-0.5923955
110	0x3c3a1667	0.01135788
111	0x3d7ea3c5	0.0621679
112	0x3eaa3c32	0.3324905
113	0x3eba04c4	0.3633176
114	0xbddc9a1c	-0.107715815
115	0xbd4afdf5	-0.0495586
116	0xbd17efb1	-0.037093822
117	0xbf19b55d	-0.60042363
118	0xbcc4a45a	-0.02400415
119	0xbf03863b	-0.51376694
120	0x3e0474f5	0.1293524
121	0xbd6199b4	-0.055078223
122	0xbf361808	-0.7113042
123	0xbecceb45	-0.40023246
124	0xbd9c6b78	-0.076376855
125	0xbf071126	-0.5276054
126	0xbf02fd1d	-0.5116747
127	0x3e80e53a	0.25174886
128	0x3e06ba46	0.13156995
129	0xbf54fad2	-0.8319522
130	0x3e939c1f	0.28830048
131	0x3f24c542	0.6436349
132	0xbe0824e5	-0.13295324
133	0xbf18cb82	-0.5968553
134	0x3f1d3ece	0.6142396
135	0x3f04539e	0.5169009
136	0xbe3ae37b	-0.1825084
137	0xbf37da66	-0.71817625
138	0x3ea3b9ef	0.31977794
139	0x3e399ee2	0.18127015
140	0xbefacc57	-0.48984024
141	0xbe9f5810	-0.31121874
142	0xbda1daf8	-0.07903093
143	0xbe86a2fa	-0.26296216
144	0x3f3a37ea	0.7274157
145	0xbe03a182	-0.12854579
146	0x3cfac3c6	0.03061093
147	0x3fccec41	1.6009599
148	0x3e99cab4	0.30037463
149	0xbe4e8aa3	-0.20170073
150	0xbece51dc	-0.4029683
151	0xbeee8603	-0.46586618
152	0xbe05da35	-0.1307152
153	0xbef9d815	-0.4879767
154	0xbe995708	-0.29949212
155	0x3f106841	0.5640908
156	0x3e180f89	0.14849676
157	0x3eaf7d67	0.34275362
158	0xbf18fdf3	-0.59762496
159	0x3f130b36	0.5743898
160	0x3eb7194b	0.35761485
161	0xbe26c31e	-0.16285369
162	0xbf67e46b	-0.90582913
163	0xbd42e0f8	-0.04757783
164	0xbdf1cea0	-0.11806989
165	0xbf13742f	-0.5759916
166	0xbf57c54e	-0.8428544
167	0x3e90a43d	0.28250304
168	0xbf60ebdf	-0.8785991
169	0x3f667d3d	0.9003485
170	0xbe1e634e	-0.15467569
171	0x3d0d1aa6	0.034449242
172	0x3f8c4f12	1.096163
173	0x3e129a09	0.14316572
174	0xbe49cc1a	-0.19706765
175	0x3f2e0a45	0.6798442
176	0x3e7dea5a	0.2479643
177	0x3c974528	0.018465593
178	0xbf0b0793	-0.5430843
179	0x3f4e6610	0.80624485
180	0xbeb18849	-0.3467429
181	0xbed0b468	-0.4076264
182	0xbeaf9e8d	-0.34300652
183	0x3f3c3ef3	0.7353355
184	0xbf1d84b4	-0.61530614
185	0xbe703115	-0.23456223
186	0x3ed111b7	0.40833828
187	0x3d3161d7	0.043306198
188	0xbf13eb03	-0.57780474
189	0x3e4dd3ef	0.20100378
190	0x3f32eb9b	0.69890755
191	0xbe1b0de8	-0.15142024
192	0xbf0d5b7d	-0.55217725
193	0x3f1e8c47	0.61932796
194	0xbf6d5577	-0.92708534
195	0xbea878ed	-0.3290476
196	0x3f347110	0.7048502
197	0x3d782cd5	0.06058963
198	0xbf618c08	-0.88104296
199	0x3ee79822	0.45233256
200	0x3f29932e	0.66240203
201	0x3e846bde	0.25863546
202	0x3f435131	0.76295763
203	0xbe61288a	-0.2198812
204	0x3ed91d4b	0.4240516
205	0xbf32a5bc	-0.6978414
206	0x3e64a7ce	0.22329637
207	0x3f0aae12	0.5417186
208	0x3f0d94d6	0.5530523
209	0xbf2cca47	-0.6749615
210	0x3d5501ed	0.05200379
211	0x3eef9cf2	0.46799427
212	0x3fd2422d	1.6426445
213	0xbe7f382d	-0.24923773
214	0xbf9094c6	-1.1295402
215	0xbce0fa59	-0.027463125
216	0x3e69fcd8	0.22850358
217	0xbe9bd24a	-0.30433875
218	0x3f4163ce	0.75542915
219	0xbf554af0	-0.8331747
220	0xbe3c5c2e	-0.18394539
221	0xbe9704de	-0.294959
222	0xbf0e1119	-0.5549484
223	0xbde98318	-0.11401957
224	0x3f6f591e	0.9349536
225	0x3f094c73	0.5363228
226	0x3f183b00	0.59465027
227	0xbf651336	-0.8948244
228	0xbd4d88d3	-0.050179314
229	0x3ef80bb0	0.48446417
230	0xbeb602f9	-0.35549143
231	0xbd58fa18	-0.052972883
232	0x3d8e6b0d	0.06954012
233	0x3f2e66c6	0.6812557
234	0xbdb75f2e	-0.08953701
235	0xbe6bdac9	-0.23032679
236	0x3e91b6d0	0.28459787
237	0x3f61b0f3	0.8816063
238	0xbe4f4d0a	-0.20244232
239	0xbe37f04c	-0.1796276
240	0x3f5c9fa4	0.8618109
241	0x3e9b44cf	0.30325934
242	0xbe13b07d	-0.14422794
243	0x3d2c9009	0.04212955
244	0xbeeda00e	-0.46411175
245	0x3f342174	0.70363545
246	0x3f1800fd	0.5937651
247	0xbeb7a996	-0.3587157
248	0x3ecba224	0.3977214
249	0x3e3f12c4	0.18659502
250	0xbf58c3f1	-0.8467398
251	0xbe0a21dc	-0.13489479
252	0x3dbf4850	0.093399644
253	0x3f414017	0.7548842
254	0xbd007ba3	-0.03136791
255	0xbe9743c5	-0.29543892

lstm_act.weight_hh_l1 f4 [100, 25]
0	0xbdc11dad	-0.09429488
1	0x3e9541b0	0.29151678
2	0x3eda4500	0.42630768
3	0x3e1974cd	0.14985962
4	0x3e8874d1	0.26651624
5	0x3d5176a2	0.051138528
6	0xbeb3a221	-0.35084632
7	0x3df134ab	0.11777624
8	0xbd0ffb2e	-0.035151653
9	0xbdef7bf8	-0.11693567
10	0xbe59872a	-0.21242967
11	0x3e10a5a9	0.14125694
12	0xbd52784b	-0.05138425
13	0x3d86562f	0.06559407
14	0xbe38817f	-0.18018149
15	0x3df79e0a	0.120906904
16	0x3e7668fd	0.24063487
17	0xbe2db752	-0.16964462
18	0xbe2b6fb6	-0.16741833
19	0xbce69aef	-0.02815005
20	0x3cd352fa	0.025796402
21	0x3e0df7e4	0.13864094
22	0x3e059569	0.13045277
23	0xbd2dab51	-0.04239971
24	0xbc85dc6b	-0.016340455
25	0xbf179af5	-0.5922082
26	0xbe813be4	-0.25241005
27	0x3eae9132	0.3409515
28	0xbf14308b	-0.5788657
29	0x3da7fc37	0.08202403
30	0xbe4732c0	-0.19452953
31	0xbdfd26d1	-0.12360919
32	0xbec10de0	-0.37705898
33	0x3e16b7af	0.14718507
34	0x3f8a2471	1.0792371
35	0xbc17f49d	-0.009274629
36	0xbeea2259	-0.4572933
37	0xbe7e2acf	-0.24821018
38	0x3e6e3ce8	0.23265421
39	0x3d92b8df	0.071641676
40	0xbf028e7c	-0.50998664
41	0x3eaccf55	0.33751932
42	0x3e2a6264	0.16639096
43	0xbbcd6336	-0.0062679304
44	0x3dd868cb	0.10566863
45	0xbefba46a	-0.49148875
46	0x3f5af5b2	0.8553115
47	0xbde56cae	-0.1120237
48	0xbef74863	-0.48297414
49	0x3bc12e09	0.0058953804
50	0x3f375b38	0.71623564
51	0xbebb423a	-0.36573964
52	0xbdb1c2cd	-0.086797334
53	0xbefcdba9	-0.49386337
54	0x3e9e335e	0.30898565
55	0x3e8e24d2	0.27762467
56	0x3cdc7f78	0.02691625
57	0x3db36517	0.08759516
58	0xbdfbdd79	-0.12298102
59	0xbe12d03f	-0.14337252
60	0xbd2f4342	-0.04278875
61	0x3e42e7a2	0.19033673
62	0xbe7280e8	-0.23681986
63	0xbee9f143	-0.4569188
64	0xbec132b0	-0.37733984
65	0x3da1ec1d	0.07906363
66	0x3e96a685	0.2942392
67	0xbecf0311	-0.40432027
68	0xbe402ed8	-0.1876787
69	0xbe5abc36	-0.2136086
70	0x3e6cfa54	0.23142368
71	0xbf236aab	-0.6383464
72	0xbe01b8bd	-0.12668128
73	0xbe517001	-0.20452882
74	0xbe1ba67f	-0.15200232
75	0xbe3afd0f	-0.18260597
76	0x3d4eaee2	0.05045975
77	0x3ea45b89	0.32101086
78	0xc0172615	-2.3616993
79	0xbe2c1ed4	-0.16808635
80	0xbd897eed	-0.06713662
81	0xbeecc223	-0.46241865
82	0xbf035799	-0.5130554
83	0xbdcba517	-0.09943598
84	0x3e29d2b2	0.1658428
85	0x3def2382	0.116766945
86	0xbe9387b7	-0.2881448
87	0x3e9de7ff	0.3084106
88	0x3eb19b48	0.34688783
89	0xbea6d627	-0.3258526
90	0x3ca26ab5	0.019826273
91	0x3e4f4d2b	0.20244281
92	0x3c049413	0.008091944
93	0x3eeacc28	0.45858884
94	0xbec8fc34	-0.39254916
95	0x3e3e1391	0.18562151
96	0xbd585061	-0.05281103
97	0xbe969098	-0.2940719
98	0xbe9d1911	-0.30683187
99	0x3db7db87	0.089774184
100	0xbea9b58a	-0.33146316
101	0xbf04aabb	-0.51823014
102	0x3cda2546	0.026629101
103	0xbcbe777d	-0.023250336
104	0xbf227150	-0.6345415
105	0xb8c3193b	-9.303024e-05
106	0x3e493b3f	0.19651507
107	0x3e471c49	0.19444384
108	0xbe3de54a	-0.18544498
109	0x3f002d2d	0.5006893
110	0xbe855839	-0.2604387
111	0xbdef38e6	-0.116807744
112	0x3d48e903	0.049050342
113	0xbd4f20c8	-0.050568372
114	0x3cfe23f3	0.031023001
115	0x3e8a8518	0.27054667
116	0xbcd58a99	-0.026067065
117	0xbe1d3d8b	-0.15355508
118	0xbe366cce	-0.17814943
119	0x3eabd133	0.33558044
120	0xbf5a6ba8	-0.8532052
121	0xbe3eb24b	-0.18622701
122	0x3dbae8fb	0.09126469
123	0xbe5327ef	-0.20620702
124	0x3da4b336	0.08041994
125	0xbcfb04b6	-0.030641895
126	0x3e838055	0.25683847
127	0xbdadf1df	-0.08493399
128	0x3eb02191	0.3440061
129	0xbe7e2e53	-0.24822359
130	0x3f3c3dae	0.73531616
131	0xbf02a021	-0.5102559
132	0xbe564e0e	-0.20928213
133	0xbec6201d	-0.38696375
134	0x3e9a237f	0.30105206
135	0x3d9962ea	0.074895695
136	0xbd48b01e	-0.048996083
137	0x3e16d342	0.14729026
138	0x3cf7b1a4	0.030236073
139	0x3daeb167	0.085299306
140	0x3dc79a87	0.097462706
141	0x3e0509c5	0.12992008
142	0xbb0d6b0d	-0.00215787
143	0x3db2cbb0	0.087302566
144	0x3eafad5a	0.34311944
145	0xbe97731a	-0.29580003
146	0x3db8f49a	0.09031029
147	0x3d59e3ab	0.053195637
148	0x3e18ec64	0.14933926
149	0x3d6081fb	0.05481146
150	0x3ebeb841	0.3724995
151	0x3ba31d88	0.0049778856
152	0x3ec03b4b	0.37545237
153	0xbf374625	-0.7159141
154	0xbdb14b3d	-0.08656929
155	0x3e803b28	0.25045133
156	0xbde489d2	-0.111591
157	0x3cb6c6d5	0.022311607
158	0xbed10440	-0.40823555
159	0x3d796d88	0.060895473
160	0x3e87afd4	0.26501334
161	0x3f3b3eca	0.73142684
162	0xbe78e312	-0.2430537
163	0x3ed9c31a	0.42531663
164	0x3da32097	0.079652004
165	0x3ea2f144	0.31824696
166	0x3eec4b91	0.46151403
167	0xbe68d790	-0.2273848
168	0xbf214f07	-0.6301121
169	0xbee460e9	-0.44605187
170	0x3c737e5d	0.01486167
171	0x3e819b4b	0.25313792
172	0x3f44d4b3	0.76887053
173	0x3dd1bb46	0.10240798
174	0x3e720976	0.23636422
175	0xbebaaafd	-0.3645858
176	0xbe850ba7	-0.25985453
177	0xbe299997	-0.16562496
178	0x3ed8e50a	0.42362243
179	0xbed55f59	-0.41674307
180	0x3c71fd7e	0.01476991
181	0xbddd340b	-0.10800942
182	0x3f97ad8a	1.1849835
183	0xbd886d1c	-0.06661436
184	0xbddcc019	-0.10778827
185	0xbe620ee8	-0.22075999
186	0x3c74cdc0	0.014941633
187	0xbecf3123	-0.40467176
188	0xbe5e8d6e	-0.21733639
189	0xbf212442	-0.6294595
190	0xbe3b7173	-0.18304996
191	0x3e4e9318	0.201733
192	0xbd8c945a	-0.06864233
193	0xbeae3fe2	-0.34033114
194	0x3d4c90e9	0.049942885
195	0xbd9f379a	-0.07774277
196	0xbe7f8e07	-0.24956523
197	0x3d89502b	0.06704744
198	0xbeb4b298	-0.35292506
199	0xbe3c4bc6	-0.1838828
200	0x3f3fa101	0.7485505
201	0xbe9ca5c4	-0.3059522
202	0x3d9ff899	0.07811088
203	0xbecab80c	-0.39593542
204	0xbcdcb262	-0.026940528
205	0x3d9dfe8e	0.07714568
206	0xbcb2baf3	-0.02181766
207	0xbec75feb	-0.38940367
208	0xbe309677	-0.17244898
209	0x3f04f13b	0.5193059
210	0xbd90b1d5	-0.07065169
211	0xbe6cc40a	-0.23121658
212	0xb911b916	-0.00013897227
213	0x3eb302b5	0.34963003
214	0xbdb17108	-0.08664137
215	0x3d0bc441	0.03412271
216	0xbdc6009c	-0.09668085
217	0xbe899167	-0.26868746
218	0x3dfcb221	0.12338663
219	0xbdab5688	-0.08366114
220	0x3e3c8d02	0.18413165
221	0x3c181d0a	0.009284267
222	0xbc4a2e0d	-0.012340081
223	0xbe020835	-0.12698443
224	0x3f07ca8d	0.5304344
225	0x3d26289d	0.040566076
226	0x3e895bd5	0.26827875
227	0x3e727990	0.23679185
228	0xbe358886	-0.17727861
229	0xbd7f5ef5	-0.062346417
230	0x3dec313d	0.11532829
231	0x3da086fa	0.07838245
232	0xbd3831a0	-0.0449692
233	0x3db4bbf9	0.088249154
234	0x3f860fde	1.0473592
235	0xbe033688	-0.12813771
236	0xbe09bc94	-0.13450843
237	0xbbb5d586	-0.0055491356
238	0x3e4bcfd3	0.19903497
239	0xbe0daf4d	-0.13836403
240	0xbe044101	-0.12915422
241	0x3ec044bb	0.37552437
242	0xbd44ef01	-0.048079494
243	0xbdd162e4	-0.1022394
244	0xbc032abb	-0.008005793
245	0x3ee72bb2	0.45150524
246	0x3ef181c9	0.4716933
247	0x3ce922d8	0.028458998
248	0x3d88c19c	0.06677553
249	0xbd1a108d	-0.03761344
250	0xbf29c74c	-0.6631973
251	0xbe2d8319	-0.16944541
252	0xbe6d7afc	-0.23191446
253	0xbd28ce8f	-0.041212615
254	0xbe80203e	-0.250246
255	0x3e001ed6	0.12511763

lstm_act.bias_ih_l1 f4 [100]
0	0x3d9d0f79	0.07668967
1	0x3e8a3f7e	0.27001566
2	0x3ec618df	0.3869085
3	0xbe317faa	-0.17333856
4	0x3e2d7955	0.16940816
5	0x3efc0735	0.4922425
6	0x3ec0d30b	0.37661013
7	0x3ec69d77	0.3879201
8	0x3e9d06ce	0.30669254
9	0x3d92fa86	0.0717669
10	0x3e4a528e	0.19758055
11	0x3eb11bb3	0.34591445
12	0x3e67b497	0.22627483
13	0x3ecb8af6	0.39754456
14	0x3f2333c8	0.63750887
15	0x3eaac394	0.3335234
16	0x3f160cad	0.5861309
17	0x3ed0fde8	0.40818715
18	0x3d1bcfb2	0.03803987
19	0x3eafdc84	0.34347928
20	0x3e369c02	0.1783295
21	0x3ec0f770	0.3768878
22	0x3e40d0c4	0.18829638
23	0x3d921bd2	0.071342126
24	0x3e281bae	0.16416809
25	0x3e4771c0	0.19476986
26	0x3e8d95f5	0.2765347
27	0x3e2111be	0.15729424
28	0x3e494ec3	0.19658951
29	0x3dfb1301	0.12259484
30	0x3e64cb62	0.2234321
31	0x3e3ad20f	0.18244193
32	0x3e2fa8ba	0.17154208
33	0x3d8ae388	0.067816794
34	0x3e2c881e	0.168488
35	0xbd331b85	-0.043727417
36	0x3e371402	0.17878726
37	0x3e9c745e	0.3055753
38	0x3eb150f4	0.34632075
39	0xbe9058a8	-0.2819264
40	0x3d898b87	0.06716066
41	0x3d94e877	0.07270902
42	0x3e574ba5	0.2102495
43	0x3e5405d1	0.20705344
44	0x3dd395b5	0.10331289
45	0x3e097bfd	0.13426204
46	0x3e1576e6	0.14596137
47	0x3e67280b	0.22573869
48	0xbd406a55	-0.046976406
49	0x3e2786ba	0.16359988
50	0xbe7864e7	-0.24257241
51	0xbc247967	-0.01003871
52	0x3cdb15d6	0.02674381
53	0x3e71897f	0.23587607
54	0xbcaf9ea0	-0.021437943
55	0x3e15ece4	0.14641148
56	0x3e1d8627	0.15383206
57	0x3bb56ea1	0.0055368696
58	0x3d870546	0.06592803
59	0x3ebc3fe6	0.367675
60	0xbd441d6f	-0.047879633
61	0xbd8a0dea	-0.06740935
62	0xbd9474d9	-0.072488494
63	0x3e541bba	0.20713702
64	0x3e86aa70	0.26301908
65	0xbd489e30	-0.048978984
66	0xbcbd023a	-0.02307235
67	0x3e808f74	0.25109446
68	0x3d153db8	0.036435813
69	0xbdbd60e1	-0.09246994
70	0xbe1ca67a	-0.15297881
71	0x3dcd6ee0	0.10030913
72	0x3c882133	0.016617393
73	0xbdd42da6	-0.10360269
74	0x3de27fa2	0.110595
75	0x3ee6f279	0.45106867
76	0x3f399954	0.72499585
77	0x3f0601a4	0.52346253
78	0x3f00d543	0.5032541
79	0x3f39ed79	0.7262798
80	0x3f22304c	0.63354945
81	0x3f16a512	0.5884563
82	0x3f246722	0.6421987
83	0x3f498c9f	0.78730196
84	0x3f0d92cf	0.5530214
85	0x3f660c85	0.89862853
86	0x3ed45fd5	0.41479364
87	0x3f4c7544	0.79866433
88	0x3eaf44a1	0.34232047
89	0x3f347bc2	0.7050134
90	0x3f31ed08	0.69502306
91	0x3f57f848	0.8436322
92	0x3f48d99c	0.78457046
93	0x3f22fff7	0.6367182
94	0x3f502b9a	0.8131653
95	0x3f10b4b0	0.5652571
96	0x3f4d2eb0	0.80149364
97	0x3f6a075e	0.9141749
98	0x3f10eb7d	0.56609327
99	0x3f391da2	0.7231084

lstm_act.bias_hh_l1 f4 [100]
0	0x3d9d0f79	0.07668967
1	0x3e8a3f7e	0.27001566
2	0x3ec618df	0.3869085
3	0xbe317faa	-0.17333856
4	0x3e2d7955	0.16940816
5	0x3efc0735	0.4922425
6	0x3ec0d30b	0.37661013
7	0x3ec69d77	0.3879201
8	0x3e9d06ce	0.30669254
9	0x3d92fa86	0.0717669
10	0x3e4a528e	0.19758055
11	0x3eb11bb3	0.34591445
12	0x3e67b497	0.22627483
13	0x3ecb8af6	0.39754456
14	0x3f2333c8	0.63750887
15	0x3eaac394	0.3335234
16	0x3f160cad	0.5861309
17	0x3ed0fde8	0.40818715
18	0x3d1bcfb2	0.03803987
19	0x3eafdc84	0.34347928
20	0x3e369c02	0.1783295
21	0x3ec0f770	0.3768878
22	0x3e40d0c4	0.18829638
23	0x3d921bd2	0.071342126
24	0x3e281bae	0.16416809
25	0x3e4771c0	0.19476986
26	0x3e8d95f5	0.2765347
27	0x3e2111be	0.15729424
28	0x3e494ec3	0.19658951
29	0x3dfb1301	0.12259484
30	0x3e64cb62	0.2234321
31	0x3e3ad20f	0.18244193
32	0x3e2fa8ba	0.17154208
33	0x3d8ae388	0.067816794
34	0x3e2c881e	0.168488
35	0xbd331b85	-0.043727417
36	0x3e371402	0.17878726
37	0x3e9c745e	0.3055753
38	0x3eb150f4	0.34632075
39	0xbe9058a8	-0.2819264
40	0x3d898b87	0.06716066
41	0x3d94e877	0.07270902
42	0x3e574ba5	0.2102495
43	0x3e5405d1	0.20705344
44	0x3dd395b5	0.10331289
45	0x3e097bfd	0.13426204
46	0x3e1576e6	0.14596137
47	0x3e67280b	0.22573869
48	0xbd406a55	-0.046976406
49	0x3e2786ba	0.16359988
50	0xbe7864e7	-0.24257241
51	0xbc247967	-0.01003871
52	0x3cdb15d6	0.02674381
53	0x3e71897f	0.23587607
54	0xbcaf9ea0	-0.021437943
55	0x3e15ece4	0.14641148
56	0x3e1d8627	0.15383206
57	0x3bb56ea1	0.0055368696
58	0x3d870546	0.06592803
59	0x3ebc3fe6	0.367675
60	0xbd441d6f	-0.047879633
61	0xbd8a0dea	-0.06740935
62	0xbd9474d9	-0.072488494
63	0x3e541bba	0.20713702
64	0x3e86aa70	0.26301908
65	0xbd489e30	-0.048978984
66	0xbcbd023a	-0.02307235
67	0x3e808f74	0.25109446
68	0x3d153db8	0.036435813
69	0xbdbd60e1	-0.09246994
70	0xbe1ca67a	-0.15297881
71	0x3dcd6ee0	0.10030913
72	0x3c882133	0.016617393
73	0xbdd42da6	-0.10360269
74	0x3de27fa2	0.110595
75	0x3ee6f279	0.45106867
76	0x3f399954	0.72499585
77	0x3f0601a4	0.52346253
78	0x3f00d543	0.5032541
79	0x3f39ed79	0.7262798
80	0x3f22304c	0.63354945
81	0x3f16a512	0.5884563
82	0x3f246722	0.6421987
83	0x3f498c9f	0.78730196
84	0x3f0d92cf	0.5530214
85	0x3f660c85	0.89862853
86	0x3ed45fd5	0.41479364
87	0x3f4c7544	0.79866433
88	0x3eaf44a1	0.34232047
89	0x3f347bc2	0.7050134
90	0x3f31ed08	0.69502306
91	0x3f57f848	0.8436322
92	0x3f48d99c	0.78457046
93	0x3f22fff7	0.6367182
94	0x3f502b9a	0.8131653
95	0x3f10b4b0	0.5652571
96	0x3f4d2eb0	0.80149364
97	0x3f6a075e	0.9141749
98	0x3f10eb7d	0.56609327
99	0x3f391da2	0.7231084

linear_act.weight f4 [39, 25]
0	0x3d1c31df	0.0381335
1	0x3cb73cab	0.022367796
2	0x3c460836	0.012086919
3	0x3bac5941	0.0052596633
4	0x3cc9f7a8	0.024654225
5	0xbcb860cc	-0.022507094
6	0xbc2c9bfb	-0.0105352355
7	0xbc346ec7	-0.0110127395
8	0xbb55893f	-0.0032583026
9	0xbd40bb41	-0.04705358
10	0x3c73f543	0.014890018
11	0xbc62a485	-0.01383317
12	0x3cdce18b	0.026963016
13	0xbbcea03d	-0.006305723
14	0x3d03e25b	0.03219829
15	0xbc60d539	-0.013722711
16	0xbd365b6e	-0.044520788
17	0xbc56d36e	-0.013111932
18	0x3beb5499	0.0071817157
19	0x3be07366	0.006849694
20	0x3c0f2483	0.008736732
21	0x3b2dda25	0.002652773
22	0xbbcf2357	-0.0063213515
23	0x3cb752a3	0.022378271
24	0xbcb5a2f9	-0.022172438
25	0x3f1aaf20	0.6042347
26	0x3caa9d7a	0.020827044
27	0xbdfe5c57	-0.12419956
28	0x3de8ce15	0.11367432
29	0x3f6720d4	0.90284467
30	0xbf8d6f77	-1.1049641
31	0x3f66d165	0.9016326
32	0xbfa016e1	-1.2506982
33	0x3f22bf8f	0.63573545
34	0xbfb341d9	-1.400447
35	0xbf9a7b48	-1.2068872
36	0xbfe739a7	-1.8064469
37	0x3f9db0ee	1.231962
38	0x3f7c98af	0.98670477
39	0xbea1dcd8	-0.31613803
40	0x3f0f0813	0.55871695
41	0x3f638a4b	0.88882893
42	0xbf087c2c	-0.5331447
43	0x3f88994b	1.0671781
44	0xbf2275cc	-0.63460994
45	0x3f32e87c	0.69885993
46	0x3f39a717	0.72520584
47	0xbf7ec7b0	-0.9952345
48	0xbf48e81d	-0.78479177
49	0x3e9de626	0.30839652
50	0x3d1c3211	0.038133685
51	0x3cb73cd0	0.022367865
52	0x3c460890	0.012087002
53	0x3bac5975	0.0052596875
54	0x3cc9f86f	0.024654595
55	0xbcb86126	-0.022507261
56	0xbc2c9c37	-0.010535291
57	0xbc346ee5	-0.011012767
58	0xbb55895a	-0.0032583089
59	0xbd40bb8a	-0.04705385
60	0x3c73f56d	0.014890057
61	0xbc62a4b7	-0.013833216
62	0x3cdce1e0	0.026963174
63	0xbbcea077	-0.00630575
64	0x3d03e282	0.032198437
65	0xbc60d580	-0.013722777
66	0xbd365bb2	-0.04452104
67	0xbc56d3aa	-0.013111988
68	0x3beb54c4	0.0071817357
69	0x3be073bf	0.0068497355
70	0x3c0f24ac	0.008736771
71	0x3b2ddaaa	0.002652804
72	0xbbcf2392	-0.006321379
73	0x3cb752b6	0.022378307
74	0xbcb5a311	-0.022172483
75	0x409f3317	4.9749866
76	0x403f7c9f	2.9919813
77	0xbdd448a4	-0.103654176
78	0x3f2ec85d	0.6827448
79	0x3f957e2c	1.167913
80	0xbe48391d	-0.19553037
81	0xbda8c755	-0.082411446
82	0xc06aefac	-3.6708784
83	0xbe8d0d5e	-0.2754926
84	0xc0edc115	-7.4298196
85	0xbf755309	-0.95829827
86	0xbeec0990	-0.46101046
87	0x3ebe9d4e	0.3722939
88	0x3ea507ae	0.32232422
89	0xbc8e3e59	-0.017363714
90	0xbd86383c	-0.065536946
91	0xbe2968ca	-0.1654388
92	0xbed91b97	-0.42403862
93	0xbeaf94f9	-0.34293345
94	0xbdf1f7a3	-0.11814811
95	0xc05132b8	-3.2687206
96	0xbdba5a0b	-0.090992056
97	0x3e6243ca	0.22096172
98	0x3fda63dc	1.7061725
99	0xc0c6693e	-6.200347
100	0x3f188c2b	0.5958888
101	0x3e7dfdd2	0.24803856
102	0x3cf00b3e	0.029302236
103	0x3e1fa120	0.15588808
104	0x3e8c67fe	0.2742309
105	0xbf15372e	-0.5828732
106	0xbf5de5b5	-0.8667863
107	0x3d923145	0.07138304
108	0x3d37d5c7	0.04488161
109	0xbed8d7b6	-0.42352074
110	0x3f06ac9a	0.5260712
111	0xbff6d657	-1.9284161
112	0x3f1375c5	0.5760158
113	0x3f729c3e	0.94769657
114	0xbda6f852	-0.08152832
115	0x3d0c84b1	0.034306232
116	0xbeeb0ed3	-0.45909747
117	0xbebc8341	-0.3681889
118	0xbfb26109	-1.3935863
119	0x3de693cc	0.11258659
120	0x3ea486a7	0.32133982
121	0x3c197940	0.009367287
122	0x3f0e1662	0.55502903
123	0x3e85ba94	0.2611891
124	0xbeb7a96a	-0.3587144
125	0x3ffb9db5	1.9657503
126	0xbe39d31e	-0.18146941
127	0x3ea24747	0.31695005
128	0x3e4b7c48	0.19871628
129	0x3f465d86	0.77486455
130	0x3f4c0fc4	0.79711556
131	0x3f35d76a	0.7103182
132	0x3e4613ae	0.19343445
133	0x3f197491	0.5994349
134	0xbda28c14	-0.07936874
135	0x3f7de855	0.99182636
136	0xbf91684d	-1.1359955
137	0x3f503256	0.81326807
138	0xbf6f6b46	-0.9352306
139	0xbdf7982a	-0.1208957
140	0x3e802fe5	0.2503654
141	0xbf09b1cf	-0.5378694
142	0x3f924a44	1.1428914
143	0x3f60b249	0.8777204
144	0x3f492c1e	0.7858294
145	0xbe6199bc	-0.22031301
146	0x3e8beaba	0.2732752
147	0x3f073b29	0.52824646
148	0xbe9de6b0	-0.30840063
149	0xbf4492df	-0.7678661
150	0x3f319b2e	0.6937741
151	0xbca96fa5	-0.02068312
152	0x3d0d12c8	0.03444174
153	0x3de5edd0	0.11227
154	0x3e3a7f69	0.18212666
155	0x3fae4c02	1.3616946
156	0x3f8822b7	1.0635594
157	0x3d9e777a	0.07737632
158	0x3dc11cca	0.09429319
159	0xbe432708	-0.19057858
160	0x3f89f453	1.0777687
161	0xbf91a480	-1.1378326
162	0x3f5370b4	0.82593846
163	0xbf2b0479	-0.668037
164	0xbeada2de	-0.3391332
165	0x3e9a4660	0.30131817
166	0xbf7b5765	-0.9818023
167	0xbf0233d0	-0.5086031
168	0x3f8c02a9	1.0938312
169	0x3ec10e39	0.37706164
170	0x3e904c48	0.28183198
171	0xbce93997	-0.028469844
172	0x3f1a29b8	0.6021991
173	0xbf3b2d01	-0.73115546
174	0xbdbef251	-0.09323562
175	0x3c5f3f40	0.01362592
176	0xbe95588a	-0.29169112
177	0x3fa05cba	1.2528298
178	0xbdf5356a	-0.119730785
179	0xbec977a0	-0.3934908
180	0xbde238ce	-0.11045991
181	0x3dd84a24	0.10561016
182	0x3f978752	1.1838171
183	0x3f8e8386	1.1133888
184	0xc006beba	-2.105391
185	0xbe7f79b1	-0.24948765
186	0xbe5af0e6	-0.21380958
187	0x3e646bbf	0.22306727
188	0xbe3c852e	-0.18410179
189	0x3dfd147e	0.12357424
190	0xbe808549	-0.25101689
191	0xbf7473ef	-0.954894
192	0xbe9679f2	-0.29389912
193	0xbe641c5c	-0.22276443
194	0xbe1ca0df	-0.15295742
195	0xbf5c5041	-0.8605996
196	0xbf459acb	-0.7718932
197	0xbe4abbae	-0.19798157
198	0xbd5cd45a	-0.05391345
199	0x3f07ac3f	0.529972
200	0x403cf1c7	2.952257
201	0x3ea2f27d	0.3182563
202	0x3fa7b980	1.3103485
203	0x3e8992ab	0.2686971
204	0xbeafbf3d	-0.3432559
205	0xbf0da785	-0.5533374
206	0xbe7e0d73	-0.24809818
207	0x3f3d0737	0.73839134
208	0x3f4ad27d	0.7922743
209	0xbfc36061	-1.5263788
210	0xbf020bee	-0.50799453
211	0x3ec36cfd	0.3816909
212	0xbcd70fc7	-0.02625264
213	0xbe891aa0	-0.26778126
214	0x3df72c8e	0.12069045
215	0x3d16430d	0.03668504
216	0xbf9af2ed	-1.2105385
217	0x3f80ee07	1.007264
218	0xbe881d6b	-0.26584944
219	0xbead2bf7	-0.33822605
220	0xbf716473	-0.942939
221	0xbf3e0f7f	-0.74242395
222	0x3daa66ab	0.083203636
223	0x3f3baeb4	0.7331345
224	0x3edf7b8a	0.4364894
225	0x4001eb04	2.0299692
226	0x3af80f0b	0.0018925382
227	0xbe913171	-0.28358033
228	0x3e2ba75e	0.16763064
229	0x400f815b	2.2422702
230	0xbe63235f	-0.22181462
231	0x3bbe8548	0.005814228
232	0x3e582764	0.21108776
233	0xbf1ac917	-0.6046309
234	0xc04dbfff	-3.2148435
235	0xbe5c1ea9	-0.21496071
236	0xbd750072	-0.059814878
237	0x3d739be8	0.059474856
238	0xbdfaf61b	-0.12253972
239	0xbe525ace	-0.20542452
240	0xbd2a2308	-0.041537315
241	0x3e39b1c6	0.18134221
242	0xbe66b3d0	-0.2252953
243	0xbe1353de	-0.14387462
244	0xbda5769f	-0.08079266
245	0x3ef18479	0.4717138
246	0xbf401952	-0.75038636
247	0x3dede5a0	0.11616063
248	0x3e09844e	0.13429376
249	0xc048f4e4	-3.139947
250	0x3f2719d5	0.6527379
251	0x3e66cefa	0.22539893
252	0x3d985178	0.07437414
253	0x40028583	2.039399
254	0x3ea70224	0.3261882
255	0xbe9c7e01	-0.30564883
