save_model/reg_model.pth (torch, 41759 bytes, 11 tensors)

emb_act.weight f4 [39, 7]
00000000: 7142 17bf d5c6 22bf e4c4 b9bd 25d3 c3be
00000010: 0cf5 38be 9c27 113f 86ba 2ebf 5dd4 8089
00000020: 5abf f188 d86b 8409 0648 7c88 c28c 6189
00000030: 60d2 e988 4bc0 b388 3005 a4be 3809 32bf
00000040: 8b96 21bf 0a85 133f a84e 963e e10b cd3e
00000050: 5af8 81be 135d acbe ac80 07bf 8265 bbbd
00000060: 9bca 8cbe b64d 9f3f 27bf 853f 6f9b 893e
00000070: 4857 24bf 944c 0f3e 6897 2abe 4441 0440
00000080: bdd6 b13f 1b5e a2be f7c2 08bf 907d c7bf
00000090: ca09 08bd 6963 ba3d 12fc cb3f e1ad 0b3f
000000a0: 2b93 1a3f a58f 953e 1039 5abf c100 e33e
000000b0: ca1d 29bf c8be 373f e27d 663f 4bb0 ed3e
000000c0: 6ca5 22bf 1602 cf3d e714 cfbe 6d3d 823f
000000d0: 2984 cabf 9fda 1d3f 9b0c 95bf 0a44 5f3f
000000e0: 6a0d cabe a201 d7bf fb3e f53f fd84 2b3f
000000f0: 8096 383f 5a89 2abd a871 253d be83 953e
00000100: d938 e3be 6550 8c3f 7e8c 4e3f a51d 403f
00000110: 3c67 8cbf 5584 06bf 0b85 bc3e 0655 f23f
00000120: 7b60 d03e 3e36 053f 3fc4 153f 68b4 bf3e
00000130: c8c4 473f 5940 903e 7519 983f 377e 0dbf
00000140: d21f b13f f904 d03e ea2f dabe e903 0c3f
00000150: e51f a4bf ceb0 003f 7995 c0bf 84ab d23d
00000160: d211 363f e787 94bf a395 bbbe b509 453e
00000170: 40f3 6abf 758b 113f 1d3e 93be e78f 823e
00000180: f7a6 f0bf 1020 4cbf 648e 013f 42db ea3d
00000190: 036b 84be 9634 a13e a304 963f 6813 94be
000001a0: 6ed4 883f 700a 433f f251 a1be c517 963e
000001b0: c5cc 183f 80fd 5a3f 4f57 72bf 07de 913f
000001c0: 672a 493d f418 943e 2bf6 9bbf 42e9 303e
000001d0: 8c9a 93be 602e 713f 07ae bd3e 4ad2 41bf
000001e0: 61e1 253f 5777 ba3c 7064 3fbe db8e 5a3f
000001f0: 2558 d33f 7291 0e3f 1b3e c8be 2220 febf
00000200: 919b 863f 3a7d 39bf 2ae9 aabe 6e48 0f3f
00000210: 1318 573f 21b7 793f 845f 113f c726 953f
00000220: cb71 b6bf ac81 02bf c603 f33e 8e69 6fbf
00000230: 52cd e4be da8e a43f 542e 85be 4765 31bf
00000240: db44 62bf 1879 0dbf e2cf 7f3f a73b 38be
00000250: 94c5 2c3f abed 9a3e cd83 b23e 5edd f93e
00000260: 22a4 c83f 382f 8e3f 75b9 0a40 3c1f c7be
00000270: 8e80 d63e d4b5 0fbf 85b7 bfbf 29a8 81bf
00000280: 2f75 103f 7fa7 063f d82f 23c0 47de f6be
00000290: b0ef ffbb 1b51 f43d 5b75 debe 0679 333d
000002a0: 0d1b 88bd f097 123f 0261 0dbf 5ead 92bf
000002b0: eae7 7dbe e9e0 03bd ade0 debe bc15 373e
000002c0: 6d18 453e 535d c1bd f515 ddbf edbb f0bc
000002d0: 7748 d73e f9c9 8dbf 5b5d 84bf 05b1 2a3d
000002e0: 1f91 00c0 f736 a63f f9a7 52bf 2767 9dbd
000002f0: af19 7e3f 4dd1 cd3d 3095 abbf ad2a 553f
00000300: dae3 b23f 48b7 b7bf 44be c9bd 46aa bdbe
00000310: 9b5f af3f ea74 82bf feaa 813e a16b 363f
00000320: 96ec 303e f67d 823e 4468 17bf b65a a63f
00000330: 6e7d 89bf 73c4 b63e b1f6 3f3f f3db 3b3e
00000340: fcfc 843e 034f 1fbf 790d 47bf 4d00 0840
00000350: 75df 12bf 83ae 3f3f 9ec5 77bf 6841 a13e
00000360: 7361 75bf bef8 38c0 7895 5b3f 16ab 9dbe
00000370: c354 8cbd 83bb c0be c67d 753f eb21 3f3f
00000380: 7f63 b2bf 61f7 953f c3c5 1fbf dca4 aabe
00000390: e412 1dbd 7ade 1b3e 89a1 583d 7486 253f
000003a0: 57d5 0bbf d537 dbbd c39d bebf 1674 ae3f
000003b0: 4e21 98bf f782 223f 0d50 ea3f f924 04bf
000003c0: 6782 0dbf 7b7f b7be 482f 7b3f f55b 5d3f
000003d0: ac18 0abf 5404 e83f 08f3 6ebe 0e88 9b3e
000003e0: 0b6e be3d e300 51be a180 bd3f 90ec a73e
000003f0: 63f8 803f ac87 193f 5328 5bc0 2b0b e43e
-0.59085757 -0.63584644 -0.09070757 -0.38247028 -0.18062228 0.56701064 -0.6825336 -3.1014585e-33
-1.4549646e-33 3.187926e-33 -7.5918155e-34 -2.7149574e-33 -1.4072636e-33 -1.08183785e-33 -0.32035208 -0.69545317
-0.63120335 0.57624876 0.29356885 0.40048125 -0.2538479 -0.3366476 -0.5293071 -0.091502205
-0.27498326 1.244559 1.044896 0.268764 -0.6419568 0.13994056 -0.1665932 2.0664835
1.3893658 -0.31712422 -0.5342249 -1.5585194 -0.03321246 0.09100992 1.5936301 0.54562193
0.6038081 0.29211155 -0.8524332 0.44336513 -0.6606108 0.71775484 0.9003583 0.46423563
-0.63533664 0.1010782 -0.40445635 1.0174996 -1.5821582 0.61661714 -1.1644472 0.87213194
-0.3946336 -1.6797373 1.9159845 0.669998 0.72104645 -0.041634895 0.040391594 0.29202074
-0.4437931 1.0962034 0.80683124 0.75045234 -1.0969005 -0.5254567 0.36820254 1.8932197
0.4069861 0.5203589 0.5850257 0.37442327 0.7803464 0.28174093 1.1882769 -0.55270714
1.3837836 0.40628794 -0.4261468 0.54693466 -1.2822233 0.5026978 -1.5045615 0.1028662
0.7112094 -1.1603974 -0.366376 0.19241984 -0.9177742 0.5685342 -0.28758326 0.25500414
-1.8800954 -0.79736423 0.50607896 0.11467601 -0.25862893 0.31485432 1.1720165 -0.28921056
1.0689828 0.761878 -0.31507832 0.2931501 0.59687454 0.8554306 -0.9466447 1.1395882
0.049112704 0.28925288 -1.21845 0.17276481 -0.28828847 0.9421139 0.37046835 -0.757115
0.64797026 0.022761984 -0.18690658 0.8537423 1.6511275 0.5569068 -0.39109883 -1.9853556
1.0516225 -0.72456706 -0.33381015 0.55969894 0.8402111 0.9754506 0.5678637 1.1652459
-1.4253477 -0.50979114 0.47463816 -0.9352044 -0.44687897 1.2856095 -0.26011908 -0.6929516
-0.88386315 -0.552629 0.9992658 -0.17991506 0.6748898 0.3025945 0.3486618 0.48801702
1.5675089 1.110816 2.1675694 -0.38891017 0.41894954 -0.5613682 -1.4977881 -1.0129443
0.5642881 0.5259933 -2.5497952 -0.4821646 -0.0078105554 0.11929532 -0.4344891 0.04381659
-0.066457845 0.5726309 -0.5522615 -1.1459157 -0.247955 -0.032196913 -0.4353079 0.17879385
0.19247599 -0.09441628 -1.7272326 -0.029386485 0.42047474 -1.1077262 -1.034099 0.041672725
-2.0088575 1.2985524 -0.82287556 -0.076856904 0.9925794 0.100496866 -1.3404903 0.83268243
1.3975785 -1.4352808 -0.098507434 -0.3704397 1.3701051 -1.0191929 0.2532577 0.7125798
0.1727775 0.25486726 -0.5914347 1.2996433 -1.0741403 0.35696754 0.74985796 0.18345623
0.25974262 -0.6222994 -0.7775493 2.1250184 -0.5737222 0.7487566 -0.96785915 0.31495214
-0.9585182 -2.890182 0.85774946 -0.3079459 -0.068521045 -0.3764306 0.9589504 0.7466113
-1.3936614 1.1716119 -0.62411135 -0.33328903 -0.038348094 0.15221587 0.052888427 0.64658284
-0.54622406 -0.107040085 -1.4891895 1.3629177 -1.1885164 0.63481086 1.830568 -0.51618916
-0.55277103 -0.35839447 0.9811902 0.8646844 -0.53943896 1.8126321 -0.23334897 0.3037724
0.09298333 -0.20410495 1.480488 0.3279767 1.0075802 0.59972644 -3.4243362 0.4453977

lstm_act.weight_ih_l0 f4 [100, 7]
00000000: bd47 133f ec92 cebf 75ab 803f 9b33 e03e
00000010: 8c9e 04bf 3146 83be 0721 7cbf b12f 24bf
00000020: 9bdb 81be f135 0a3f face e5bd 9b40 4f3e
00000030: d2a0 363f b2eb 1d3f 89ed 373e 5d67 9abf
00000040: 6865 063f 83d3 273f 7ca0 8a3f b19d 48bf
00000050: ec18 13be 7e95 a1bf 3d94 c83f eae6 fabe
00000060: 6f0b 213f 1571 ffbc 2127 b83e 5f58 813e
00000070: 2967 1abf 5b04 0f3f 590b 59bf 94d0 28bd
00000080: c9f6 54bf 6517 2fbf 2eb3 0d3e bcf9 783e
00000090: 108f c03f 19f1 b9bd f5f8 a93e 8e57 ebbe
000000a0: 3e0d d43e 6e2a 82be c124 d73d 9d52 03bf
000000b0: 25ef 4d3d e929 4d3f 7c34 243f 1bb4 13be
000000c0: 5286 c43e 7758 02bf 348e c3be 854e 303e
000000d0: e28b bdbd 567d 963f 3b67 48bf 12a5 013e
000000e0: bded 0a3e 9062 57be 0cbb 8f3e efdc e5be
000000f0: 54dc b23e 964f c73d 6cb3 033e 10df 133f
00000100: 9354 11bf b988 983d 60ef 08c0 1a4f 483c
00000110: 5df1 f53e dd90 81bd c478 fabe 9bcb 0a3f
00000120: 6ae1 97bf 834a 613e 70a7 b43d 2d29 533f
00000130: c18f 013f 2925 a43e 5f41 c2be 8974 273f
00000140: 50ea ea3e 2028 763f 5b50 8abe 74bb 673e
00000150: c8bb 853e 95e8 4abf c0d6 0f3f 0f16 03be
00000160: a17f b8bd 6c81 453f 77f1 acbe 7620 82bf
00000170: 9e21 103f 429e c3be ff3f c7be 309f 453f
00000180: 75e2 933c a17c 883e 3280 953e 531f 543e
00000190: 26e2 b1bf a0df 7f3f 270b 763f 5dcc b43f
000001a0: 29e9 c43d d366 193e d210 db3e d95d 10bf
000001b0: 81e4 493e 5651 95bf 8556 35bf 67e1 19be
000001c0: 0041 d2be 2872 843f d446 50bf 8ea9 08bf
000001d0: c066 8dbe 1914 983f 7bee 58be a68a 15bf
000001e0: fae1 ad3d d3be a9be dd55 933f 2474 8cbe
000001f0: c7dc 643f 7643 93be 7e0d 423e 1fe9 96bf
00000200: c2d5 fabc 012f 273f bf94 9d3e ca67 c5be
00000210: 4fda 0ebf 7fa4 f8bc c83d db3e e186 0fbf
00000220: ea2f 4dbf 9586 593e 88c8 0a3e e29a 813f
00000230: 659c 8a3e ce53 b53e c83d ce3d 28fc 01bf
00000240: 4c29 1b3e f4d5 a83d 80aa aebe d916 913d
00000250: 4b7c e5bd 94be 0b3f 359b 4d3e b4db 793e
00000260: ca1d 89be abbe 903d ef01 b1bc 08ed 8bbe
00000270: 4a94 833f 2f7a f4bc 1b68 fabe c086 debe
00000280: 5a50 11be 0f98 31be acb6 f8bd a304 16be
00000290: dd53 c4be 09d3 5fbf 5d1d 45be 6ee8 83bf
000002a0: ace0 0040 39fd 4bbf 5f45 993e 0b57 cfbe
000002b0: 7b68 c73e 9725 14be f7ac 1d3f 8d30 69bf
000002c0: faa8 973f 81a0 50bf 53de 1c3e c0cf a7be
000002d0: 070a 023f ff75 073f a0fc 8f3f 5cbf ca3e
000002e0: 6a43 97bf 079c 4cbb 011c e3bd a68f 7dbf
000002f0: 63c2 b5be 0865 c8be 313c b73e 7046 173e
00000300: 9341 e0be f4b7 21be 4c43 c53c 03d1 23bf
00000310: 01a7 593f 0d6c fabf 568e 1f3f 01f5 033e
00000320: a4fb 093e d2b0 50be bcb6 2cbf d56c c13f
00000330: 2d6a 4cbf 458e 2f3f dbca 15bc f608 773f
00000340: 48b8 e63e df30 fe3d 1675 00be 87ec 02bf
00000350: 1d82 85be d4af 4a3e 5a70 803e 35b4 83be
00000360: 7fd8 253e bef8 3cbf 2787 2d3f 9fd7 82be
00000370: 5738 d3bb 79f6 c83d 47a3 eebd 574c 943e
00000380: 508e 2e3f 8b43 8e3e 84db 9a3e 10eb 4ebd
00000390: 8265 42bf bf8c c23e 425b fa3d ab1d 09bf
000003a0: bbd5 17be 2cca 01be 95a0 9abe 34c5 bd3d
000003b0: 5875 3a3f 05cd 22bd 6194 01bd ef55 9e3f
000003c0: 26b8 0d3d 8796 f83e 194b 5d3e 108a 753e
000003d0: f3fd 843e cc1f 1d3f e77e cbbe 9f20 ca3d
000003e0: fd30 14be ebd7 d13d 8c7d 5cbe f925 06bf
000003f0: 3b3b 9f3e ce93 fcbe 2fd1 8a3e 578e febe
0.5753134 -1.6138587 1.0052325 0.43789372 -0.51804423 -0.2563949 -0.98487896 -0.6413527
-0.25362858 0.5398856 -0.11221118 0.20239489 0.7133914 0.6168777 0.17961706 -1.2062794
0.52498484 0.65557116 1.0830226 -0.7836562 -0.14364976 -1.2623746 1.5670239 -0.49004298
0.6290807 -0.031181851 0.35967353 0.25262734 -0.6031366 0.5586602 -0.8478294 -0.04121454
-0.83189064 -0.6839507 0.13837883 0.24314016 1.5043659 -0.09079189 0.33197752 -0.45965236
0.41416353 -0.25422996 0.10505057 -0.5129793 0.050276894 0.80142075 0.64142585 -0.14424174
0.38383728 -0.50916237 -0.3819443 0.17217453 -0.09255196 1.1757 -0.7828252 0.12660626
0.13567252 -0.21033692 0.28072393 -0.4489512 0.34933722 0.09731977 0.12861413 0.5776224
-0.56769675 0.07447953 -2.1396103 0.0122258905 0.48035708 -0.063264586 -0.48920262 0.5421693
-1.1865666 0.2200108 0.08820999 0.82484704 0.50609976 0.320596 -0.379405 0.65412194
0.4588189 0.96154976 -0.2701443 0.22630101 0.26119828 -0.7926114 0.5618706 -0.12801383
-0.09008718 0.7715061 -0.33777973 -1.0166156 0.56301296 -0.3820668 -0.38916013 0.77196026
0.018052319 0.26657584 0.29199368 0.20715074 -1.389714 0.999506 0.9611077 1.4124867
0.09614784 0.1498063 0.4278627 -0.563932 0.19716074 -1.1665447 -0.70835143 -0.1502739
-0.41065216 1.0347338 -0.81358075 -0.5338372 -0.27617455 1.1881133 -0.21184723 -0.58414686
0.08490367 -0.331534 1.1510578 -0.27432358 0.8939938 -0.28762406 0.1895046 -1.1789893
-0.030619506 0.653061 0.30777547 -0.38555747 -0.5580186 -0.030351875 0.42820573 -0.56065184
-0.80151236 0.21242745 0.13553059 1.0125391 0.27072445 0.354155 0.100703776 -0.50775385
0.15152472 0.08243933 -0.34114456 0.07084436 -0.112053476 0.54587674 0.20078738 0.24400216
-0.2678054 0.07067617 -0.021607367 -0.27329278 1.0279629 -0.029843418 -0.4890755 -0.4346218
-0.14190808 -0.17343162 -0.12144217 -0.14650206 -0.38345233 -0.8743139 -0.19249482 -1.0305307
2.013713 -0.7968326 0.29935738 -0.40496096 0.389469 -0.14467464 0.6159205 -0.9108971
1.1848443 -0.8149491 0.15319185 -0.32775688 0.5079655 0.5291442 1.124897 0.3959912
-1.1817448 -0.003122093 -0.11089326 -0.99047315 -0.35499868 -0.3913958 0.3578811 0.14772964
-0.4380003 -0.15792829 0.024079941 -0.639908 0.8502045 -1.9564224 0.6232656 0.1288643
0.134749 -0.20379952 -0.6746633 1.5111338 -0.7984951 0.6857646 -0.009142603 0.9649805
0.4506247 0.12411665 -0.12544665 -0.5114216 -0.2607583 0.19793636 0.25085717 -0.25723425
0.16195868 -0.7381705 0.6778435 -0.2555513 -0.006445925 0.09812636 -0.116522364 0.28964493
0.681859 0.27785906 0.30245602 -0.05051714 -0.7593614 0.37998006 0.12224437 -0.53560895
-0.14827625 -0.12674779 -0.3020064 0.09266129 0.728353 -0.039746303 -0.031635646 1.2369975
0.034599446 0.48552343 0.21610679 0.23978448 0.25974998 0.61376643 -0.39745256 0.09869503
-0.14471813 0.10246261 -0.21532267 -0.5240169 0.31099877 -0.49331516 0.2711272 -0.49717972

lstm_act.weight_hh_l0 f4 [100, 25]
00000000: e26c 3c38 c554 df3d 6296 a6bd 7ed8 21bd
00000010: 0a6f dfbe 3fab 28bc 14db 9abd 50e8 9a3d
00000020: e926 c53e 3d5b 75be af01 3c3e ed95 413e
00000030: 6c03 f3bd ed3c 80be 41b8 81be fce5 a6bd
00000040: a788 a9bd 8b57 dfbd bb06 a73e 1544 29bd
00000050: d32e d33e 7e79 123e e63e 84be 83ce d43e
00000060: 53ba b6be fe09 f0be ef0a e8bf f621 8ebe
00000070: a2f9 f13d 1899 1ebe b9d3 743e 5b33 4e3b
00000080: a804 5bbe 157b b43e 3458 5bbf d05b 3abe
00000090: eda3 b53e 34a0 d53e 1831 66be 913d 15be
000000a0: f694 3d3f bdc3 2c3e 54fe c83d 46d8 89bb
000000b0: 4680 553d 39c0 a03e c413 143e 6d04 9a3d
000000c0: 40f7 cdbd 67cc 0e3f fc48 8d3d 0fab 63be
000000d0: 15ff 6b3e 6099 943d 2423 7ebe effd abbd
000000e0: 4782 2c3d 6b77 063f a509 8dbe c83d 883e
000000f0: 1ce7 f5bd 91f9 9b3e 0562 bb3e ae04 1e3d
00000100: e4d4 1f3e 9981 3e3e 0125 a7be 84a7 823c
00000110: 99ba a53d 4617 05be 0d2d 7a3d 9241 74be
00000120: 8364 cd3d d0cc b5bd feac 9cbd f0a3 bdbe
00000130: a0e9 16be 3455 413c 3fe1 94be f0e0 5d3d
00000140: b20c 96be 3af9 2c3f 9add c8bc f21f 9a3a
00000150: 755a 093f 3bed 82be d657 223e 8444 bd3e
00000160: f75d 9f3e a2ba 65be 323b fbbe 03c5 64bd
00000170: 3846 fd3c 68bc 08bf c54e 19bf 3c93 12be
00000180: 0f63 363f a4f9 fc3c 425b 033e 2218 59bd
00000190: 8c1e 47bf 56c3 853d 6fbf e23d 1286 333e
000001a0: 4c7c 17be bccf a6bd 29b8 6e3e f01b 15be
000001b0: 1a55 4d3d 18eb 4bbd 555b 65bd b7a8 c63e
000001c0: 540f 9a3e fa2f de3d fa47 e73d 573f 323e
000001d0: 788c cebe 828e 8c3d 75fd 5dbe bd64 0ebf
000001e0: 3b15 113f 383a 163f 608b 69be 53bf adbe
000001f0: a3e1 213e 9dac d73e 99f6 a63e fa7d 6dbe
00000200: cc2b 89be 2b57 d0be d554 33be 4c7a 9b3e
00000210: 222e 0b3e 9604 dcbd d8c7 f4bd 585d 6c3e
00000220: 0801 79bd c659 5abe f5b5 9fbe 6c56 f63d
00000230: 5605 19bf 8663 adbe a73d 0f3d 49af c3bd
00000240: 26d6 a7be f400 e1bd 5e1f 00be 0904 0c3d
00000250: 3fa1 fe3d 0446 653d b4e2 0c3f e826 86be
00000260: 2a72 d0be 1816 c0be 35f4 b5be b674 a7bc
00000270: b0d9 df3e 8384 353f 06b3 9ebd 5e58 02be
00000280: 67a5 cfbc 4349 163e aabb 363c da87 08bf
00000290: 1254 89be e683 b9be ec36 44bf cf24 093d
000002a0: 8b04 583f 547e a5be 2d1e 663d 0407 7fbf
000002b0: 852b 23bf 8e92 193f cf7a efbe 3710 28be
000002c0: e9db 523d 3ede 323d 9e18 063f 0b0c e0be
000002d0: 7e2b 02bd 3df7 12bf 4801 9dbe 6f7d bd3e
000002e0: 5e81 333e a5ce 21be 3d0d 04bd c1bd abbe
000002f0: f0e2 28bd b1ef 123e 033e 11bf 1bac 0b3e
00000300: 0ce7 553e e3eb c0bc a3f3 5a3b 512b 103f
00000310: e383 593d da9d 29be b720 0bbd e7bf 4b3e
00000320: 9e7e 6ebb 0b1c 953e d65f 0c3f 1b30 05bf
00000330: 2245 563e 5eb3 b1be 6d6a a5bc 50d5 b2be
00000340: 4259 c83e fd3c 26bb 77f8 d33e 6855 a43e
00000350: c734 80be 2b60 90be b6c5 babe c861 4bbe
00000360: d035 c8be a218 763e 8a69 3abe e4c0 bb3d
00000370: 3479 8e3e 57fc cbbe 4918 a1bc ff82 27bf
00000380: 1596 0d3d dfd8 6ebe 440a 1ebe 0161 11bd
00000390: 2428 fa3d 3195 ab3e e36a 2d3e 46b9 73be
000003a0: f139 a23e 3078 ca3c e665 743d 4e0e 67bc
000003b0: 8d52 a6be 2618 e03d 4d6b d9be 4432 60be
000003c0: 3b0e 183e 0495 2e3e a7df a83c aa3e 3dba
000003d0: a330 05be ee3f 993d a480 99be 0fb9 58be
000003e0: a21b f23d 1988 31be 3735 5ebe fd3c 91be
000003f0: 4397 1a3e d36d 1ebf 1e00 eabe 584f a83e
4.4924098e-05 0.109048404 -0.08134152 -0.039513104 -0.43639404 -0.0102947345 -0.07561317 0.07563841
0.3850625 -0.23960586 0.18360017 0.18904848 -0.11865887 -0.25046483 -0.25335887 -0.08149335
-0.082780175 -0.10905369 0.32622322 -0.041324694 0.41246662 0.14304158 -0.25829238 0.41563806
-0.3568903 -0.46882623 -1.8128337 -0.27760285 0.11815192 -0.15488088 0.23908891 0.0031463716
-0.21388495 0.35250154 -0.8568146 -0.18199086 0.35476628 0.41723788 -0.22479665 -0.14574267
0.7405542 0.16871543 0.09814134 -0.00420669 0.052124284 0.31396654 0.14460665 0.075203754
-0.10056925 0.55780643 0.06898686 -0.22233222 0.23046525 0.072558165 -0.24818093 -0.08398043
0.04211643 0.5252597 -0.2754642 0.26609635 -0.12006971 0.30463842 0.3659822 0.03857868
0.15608555 0.18604125 -0.3264542 0.015949018 0.08092231 -0.1299716 0.06107812 -0.23853138
0.10028937 -0.088769555 -0.07650183 -0.37039137 -0.14737558 0.011800099 -0.290781 0.054169595
-0.2930656 0.6756779 -0.02451973 0.0011758788 0.5365365 -0.25571617 0.15853819 0.36966336
0.31126377 -0.22434476 -0.490686 -0.055851948 0.030917272 -0.53412485 -0.5988582 -0.14313978
0.712449 0.030880757 0.12827781 -0.05300153 -0.77780986 0.06531398 0.11071669 0.17531613
-0.14793509 -0.08145091 0.23312439 -0.14561439 0.050129987 -0.04978475 -0.055995304 0.38800594
0.3008982 0.108489946 0.11293025 0.17406975 -0.40341544 0.06863119 -0.21678717 -0.55622464
0.5667302 0.58682585 -0.22807074 -0.3393503 0.1580873 0.4212388 0.32610014 -0.23192587
-0.26791227 -0.40691504 -0.1751283 0.30366743 0.13591817 -0.10743062 -0.1195218 0.23082483
-0.060792 -0.21323308 -0.3119351 0.120282024 -0.59773767 -0.33864993 0.034970906 -0.09554917
-0.3278057 -0.1098651 -0.12511966 0.034183536 0.12433099 0.055974975 0.5503342 -0.26201558
-0.407121 -0.37516856 -0.35537878 -0.020441394 0.4372077 0.7090532 -0.0774899 -0.12729022
-0.025347425 0.14676385 0.011153141 -0.53332293 -0.26821953 -0.36233443 -0.76646304 0.03348237
0.8438193 -0.32322943 0.05618112 -0.9962008 -0.6373828 0.5998925 -0.46773383 -0.16412435
0.051479254 0.043668978 0.5238131 -0.43759188 -0.03177976 -0.57408506 -0.3066504 0.3700976
0.17529818 -0.15801485 -0.032239188 -0.33543208 -0.04123205 0.14349248 -0.5673525 0.13639872
0.20888919 -0.02354998 0.003340938 0.56316096 0.053104293 -0.16564122 -0.033966746 0.19897424
-0.0036391388 0.29122958 0.54833734 -0.5202653 0.2092481 -0.3470716 -0.02019235 -0.3492837
0.39130598 -0.0025365942 0.414005 0.3209641 -0.25040266 -0.2819837 -0.36478966 -0.1986152
-0.39103556 0.24032834 -0.18204322 0.0916765 0.27826846 -0.39840958 -0.0196649 -0.6543426
0.034566958 -0.23324917 -0.15433604 -0.0354929 0.122146875 0.33512262 0.16935305 -0.23801145
0.3168483 0.024715513 0.05966749 -0.014102532 -0.32484856 0.10942106 -0.42464676 -0.21894175
0.14849178 0.17049032 0.020614458 -0.00072191155 -0.13006835 0.07482897 -0.29980958 -0.21164344
0.11821677 -0.17337073 -0.21699987 -0.28366843 0.15096764 -0.6188633 -0.45703214 0.32873034

lstm_act.bias_ih_l0 f4 [100]
00000000: 74c7 4dbe d1ce 5b3e c426 063f c57b cd3d
00000010: dc79 093d ddcb 9f3e 1ddf 883f b3a5 133f
00000020: 5b3d a53f 41f6 0f3e 0829 1e3f b9fd 823f
00000030: 9d27 253f 0963 433f 7293 673c 0cc6 053e
00000040: a004 1b3f ba66 133f ce2c 083e 9f27 8a3f
00000050: 8232 2c3e d789 a53e 6b75 fa3e 7e81 6a3f
00000060: 7a0c 2e3b a659 993d 82d8 063f 4f9e 1bbd
00000070: 79eb 923e 9fa1 923e c812 803e 7376 46bf
00000080: 6a84 49be f005 5ebf 7e67 f0bd e479 24be
00000090: 0639 1dbf 848e 30bd edbc b5be fa3b cabd
000000a0: 6260 973e d884 09be 7356 15bf bb13 0d3e
000000b0: 8e2f 9cbe 519e 06bd 67dc 323e 9f5e cd3d
000000c0: d93e 56bf 35ea 0d3e 8016 90be dbd9 a2be
000000d0: a31e b43e 38cd f0bd cdb3 d6bd 758a 133e
000000e0: a8cc 223e 7f5a 4a3e a1ef 22be 3913 9e3e
000000f0: 8320 19be 08bd b23e 3516 523e 1479 8abd
00000100: 083c 69bd f7e9 df3d 3815 9dbd baa2 9abe
00000110: 84df b6bd 1ea6 bebe f39e 80bc 04b0 a33e
00000120: 65bf 4dbe 9347 b93c 3fd2 473d 9ed5 d73e
00000130: 741d 453f 59c3 6a3f 09a0 633f 7056 3b3f
00000140: caeb 323f bd0e 9c3f 041f a03e e574 b03f
00000150: 0c28 3f3f 21c5 4c3f 3ad6 873f b679 543f
00000160: 8ec4 463f 7db9 383f aeff e53e 0246 7c3f
00000170: 69ad 2e3f 733d 643f 9809 483f ea3d 973e
00000180: 5eb1 a03e aeb1 293f 59a0 8c3f 3671 493f
-0.20095617 0.21465613 0.524029 0.10033373 0.03356348 0.31210223 1.0693089 0.5767471
1.2909349 0.14058782 0.6178136 1.023368 0.6451357 0.7632299 0.014134275 0.1306383
0.6055393 0.57578623 0.13298342 1.0793341 0.16816142 0.32331726 0.48917708 0.9160384
0.002655773 0.07487802 0.52674115 -0.03799277 0.28695276 0.28638932 0.2501433 -0.7752449
-0.19679418 -0.8672781 -0.117384896 -0.16062123 -0.61415136 -0.043104663 -0.354957 -0.09874721
0.29565722 -0.13429582 -0.58335036 0.13777058 -0.3050503 -0.032865826 0.1746689 0.10027813
-0.8368965 0.13858874 -0.28142166 -0.31806836 0.35179624 -0.11757892 -0.10483513 0.14408286
0.15898383 0.19761084 -0.15911724 0.3087404 -0.14953808 0.34909844 0.20516284 -0.06761375
-0.056942016 0.10933297 -0.07670063 -0.30202276 -0.08929351 -0.37236112 -0.015700793 0.31970227
-0.20092542 0.022617137 0.04878449 0.42155164 0.76998067 0.91704327 0.8891607 0.7317877
0.69891036 1.2191998 0.31273663 1.3785673 0.7467048 0.79988295 1.0612252 0.82998216
0.7764367 0.7215803 0.4492163 0.98544323 0.6823335 0.89156264 0.7813964 0.29539424
0.3138532 0.6628674 1.0986434 0.7868837

lstm_act.bias_hh_l0 f4 [100]
00000000: 74c7 4dbe d1ce 5b3e c426 063f c57b cd3d
00000010: dc79 093d ddcb 9f3e 1ddf 883f b3a5 133f
00000020: 5b3d a53f 41f6 0f3e 0829 1e3f b9fd 823f
00000030: 9d27 253f 0963 433f 7293 673c 0cc6 053e
00000040: a004 1b3f ba66 133f ce2c 083e 9f27 8a3f
00000050: 8232 2c3e d789 a53e 6b75 fa3e 7e81 6a3f
00000060: 7a0c 2e3b a659 993d 82d8 063f 4f9e 1bbd
00000070: 79eb 923e 9fa1 923e c812 803e 7376 46bf
00000080: 6a84 49be f005 5ebf 7e67 f0bd e479 24be
00000090: 0639 1dbf 848e 30bd edbc b5be fa3b cabd
000000a0: 6260 973e d884 09be 7356 15bf bb13 0d3e
000000b0: 8e2f 9cbe 519e 06bd 67dc 323e 9f5e cd3d
000000c0: d93e 56bf 35ea 0d3e 8016 90be dbd9 a2be
000000d0: a31e b43e 38cd f0bd cdb3 d6bd 758a 133e
000000e0: a8cc 223e 7f5a 4a3e a1ef 22be 3913 9e3e
000000f0: 8320 19be 08bd b23e 3516 523e 1479 8abd
00000100: 083c 69bd f7e9 df3d 3815 9dbd baa2 9abe
00000110: 84df b6bd 1ea6 bebe f39e 80bc 04b0 a33e
00000120: 65bf 4dbe 9347 b93c 3fd2 473d 9ed5 d73e
00000130: 741d 453f 59c3 6a3f 09a0 633f 7056 3b3f
00000140: caeb 323f bd0e 9c3f 041f a03e e574 b03f
00000150: 0c28 3f3f 21c5 4c3f 3ad6 873f b679 543f
00000160: 8ec4 463f 7db9 383f aeff e53e 0246 7c3f
00000170: 69ad 2e3f 733d 643f 9809 483f ea3d 973e
00000180: 5eb1 a03e aeb1 293f 59a0 8c3f 3671 493f
-0.20095617 0.21465613 0.524029 0.10033373 0.03356348 0.31210223 1.0693089 0.5767471
1.2909349 0.14058782 0.6178136 1.023368 0.6451357 0.7632299 0.014134275 0.1306383
0.6055393 0.57578623 0.13298342 1.0793341 0.16816142 0.32331726 0.48917708 0.9160384
0.002655773 0.07487802 0.52674115 -0.03799277 0.28695276 0.28638932 0.2501433 -0.7752449
-0.19679418 -0.8672781 -0.117384896 -0.16062123 -0.61415136 -0.043104663 -0.354957 -0.09874721
0.29565722 -0.13429582 -0.58335036 0.13777058 -0.3050503 -0.032865826 0.1746689 0.10027813
-0.8368965 0.13858874 -0.28142166 -0.31806836 0.35179624 -0.11757892 -0.10483513 0.14408286
0.15898383 0.19761084 -0.15911724 0.3087404 -0.14953808 0.34909844 0.20516284 -0.06761375
-0.056942016 0.10933297 -0.07670063 -0.30202276 -0.08929351 -0.37236112 -0.015700793 0.31970227
-0.20092542 0.022617137 0.04878449 0.42155164 0.76998067 0.91704327 0.8891607 0.7317877
0.69891036 1.2191998 0.31273663 1.3785673 0.7467048 0.79988295 1.0612252 0.82998216
0.7764367 0.7215803 0.4492163 0.98544323 0.6823335 0.89156264 0.7813964 0.29539424
0.3138532 0.6628674 1.0986434 0.7868837

lstm_act.weight_ih_l1 f4 [100, 25]
00000000: 975f 333e 25b3 d63c a414 f13e fc70 2bbe
00000010: 4fe9 9dbb 0dcd aebf c7dd 453f 7268 f53e
00000020: 4b50 7ebf d7ee 453e 6452 9c3e c13e 85bf
00000030: ba5b 1fbe 5235 6e3f e19d ff3e 7588 26be
00000040: 5c4e 493d 2038 60bf 90b4 6abe 3845 9bb9
00000050: c744 713f 4a60 41bc c1af c33c d351 073f
00000060: a4b9 abbe 3018 ffbe f52a 76be 6532 183e
00000070: bb2f 25be e5ff b2be f898 36be f72a 4fbf
00000080: a64c 813d c175 923f 0043 f03d 6769 1dbf
00000090: e540 793f 82a4 0a3f 4ceb 0fbe 7d7c 7b3d
000000a0: 1093 323e 5eeb c03e bb7f 6f3e 8db0 853d
000000b0: d35b 3bbe 1021 83bc d983 283f 2b20 88bf
000000c0: 1a10 0dbf 3ad2 9ebc 15a6 d33e b09d 09bf
000000d0: 2217 22bf eb43 86be 073a 24be b167 18bd
000000e0: 4d8d 43bf fd77 f3be 7532 813f 1343 b5be
000000f0: d8b7 b2be 7b6a f43e e1fa 6abf 810e 433f
00000100: ea48 9d3e fb9b 11be fbdf dc3e bbea 6dbe
00000110: da4b 57be 9ae9 ffbe 87ca aebe 7d84 b1be
00000120: f6d7 cfbe c1ca e8bf ff3a e93e 5d07 d6bf
00000130: b939 383f ad9f 0bbe 1966 2bbc fb5d 263c
00000140: fb4c 17be 7578 7e3e 1f16 86bf acf7 c23f
00000150: d27e dd3e 4b08 f03d bc98 653f 6f32 c7be
00000160: 7762 633e fcfa 00bf 6e5a 763e a2b5 9fbe
00000170: 733a a03e 5467 d03e 5cfe 8abf 125f 80bd
00000180: 81ea 01bf 6381 173f fe07 10bf 6b40 65be
00000190: 0121 ee3c cfde dfbe e927 a63e f90b da3e
000001a0: 93f4 60be f098 38c0 bec6 b8be 12d5 493e
000001b0: 96f2 0fbd 2f5e a8be 773c eebd 66cd 43bf
000001c0: cfd9 83be 9c4f b6be d688 a43e e7e4 3e3e
000001d0: 872d de3d d8ae b13e 35be a0bc a5a2 83bc
000001e0: d8b5 c7be 45bd 6dbd 0849 313f 29e6 4fbf
000001f0: 8455 a93e d627 b73d b6b9 ad3f c83c 833f
00000200: 94ee 2c3e 75d7 54bf b1b2 00be 5309 b93e
00000210: 13c3 3fbf 1994 fe3e bf3b 02bf e672 15be
00000220: a3bc bbbc 3cbf 363f e556 693f 7275 27bf
00000230: 418d 78be 0bbf 38be 3a1d d2be 0e64 18bd
00000240: fb30 b03e 8465 123e 9399 44bd 6c8c 1a3f
00000250: 1cd2 b6be 9434 3ebe 4b4a 993e 8b00 713e
00000260: d588 103f 4f85 f8bc d74e 153f 2284 8f3d
00000270: 5ef2 813f 8194 81be f4f5 52bf d6c9 f73e
00000280: ba6b c03e 7573 b7be d22c a83e e8b1 80be
00000290: 0910 093e 17bf d83d c408 1ebe f5e0 be3d
000002a0: 3728 cdbe ed75 4c3f 8225 6f3f ed51 373f
000002b0: f22c ff3d caf0 6e3f 20ab 29bd b113 713d
000002c0: 0bed a03e c6bd 243e bb65 90bf adba d6be
000002d0: f926 3d3f 192f bf3e cb6a 0abd d134 2b3d
000002e0: c7d6 dd3d e08a 07bf 379b 6e3c 0f70 1ebe
000002f0: c399 6dbe 4fea b73c 3184 383e 3ca4 c9bf
00000300: 7d26 cd3d 6b37 b33e 773c 94be a43a 97bd
00000310: e5bd d7be 235d 053f 31be 1f3e 0011 333d
00000320: de13 ffbe 0998 8bbe b4a1 b03e 669a 473e
00000330: 6305 12bf 0b5d 8b3e c598 60bf 0d40 153e
00000340: e7f4 963f 7ef0 0b3f 2f40 4ebf 2c0d 9b3f
00000350: 6c67 d7bc 04b2 1b3f e044 bdbd 86a3 5abe
00000360: 5f0f 8fbc 1b57 acbe 7f2f c8be 977f 21bf
00000370: c48a 30be 39f1 953d 0286 95be 00f4 87bf
00000380: 2696 3c3e 971a 85be bcbb 1b3f b735 293f
00000390: 07ee 3bbe 033a 02bf 7bcf 093e bb0b 95bf
000003a0: 4ee4 313e a0ee 223f 72fc 5abd b2d3 e4bd
000003b0: fc78 353f 1656 c23d eb53 a4be d92f c13d
000003c0: f973 24bf 4b6f 1fbd bf45 debe 6220 c53e
000003d0: 8ec9 413e 08ad e2be fa76 bcbd ce4d 28bd
000003e0: e7ba 54bf 9c82 d0be c537 f73e 342b 5e3e
000003f0: ab5f 3f3d 3fa9 803f dea0 5bbf 0831 c43e
0.17516933 0.02620847 0.4708606 -0.16742319 -0.0048190723 -1.3656327 0.7729153 0.47931248
-0.9934127 0.19329391 0.3053161 -1.0409776 -0.15562335 0.9305011 0.4992514 -0.16262992
0.049146995 -0.8758564 -0.22920442 -0.00029615476 0.9424557 -0.011802742 0.023887517 0.5285923
-0.3354007 -0.4982314 -0.24039824 0.14862974 -0.16131489 -0.34960857 -0.1783179 -0.80924934
0.06313448 1.1442186 0.11731529 -0.61488956 0.97364646 0.5415727 -0.14054602 0.06139802
0.17438912 0.3767957 0.23388569 0.06527815 -0.18296747 -0.016006976 0.65826184 -1.0634817
-0.55102694 -0.019387353 0.41337648 -0.5375624 -0.6331655 -0.26223692 -0.1603776 -0.037208263
-0.7638748 -0.4755248 1.0093523 -0.35402736 -0.34905887 0.47737488 -0.9178906 0.76194006
0.30719692 -0.14219658 0.43139634 -0.23234074 -0.21025029 -0.4998291 -0.3413889 -0.34671393
-0.40594453 -1.8186876 0.45552823 -1.6720997 0.7196308 -0.1363513 -0.010461354 0.010154243
-0.1477546 0.24850638 -1.0475501 1.5231833 0.4326082 0.11720332 0.8968618 -0.38905665
0.2220553 -0.5038297 0.24057934 -0.31193262 0.31294593 0.40703833 -1.0858874 -0.06268133
-0.5074845 0.59181803 -0.56262195 -0.22387855 0.029068472 -0.43724677 0.32452324 0.4258726
-0.21968298 -2.8843346 -0.36089128 0.19710186 -0.035143457 -0.32884356 -0.116326265 -0.7648529
-0.25752112 -0.35607612 0.32135648 0.18642007 0.108485274 0.34703708 -0.019621948 -0.016068766
-0.39005923 -0.05804183 0.6925206 -0.8121057 0.33073056 0.08943145 1.35723 1.0252924
0.16887885 -0.8314126 -0.12568165 0.36139926 -0.74907035 0.49722365 -0.50872415 -0.14594612
-0.022917097 0.7138555 0.91148216 -0.6541358 -0.24272634 -0.18041627 -0.41037923 -0.037204795
0.3441237 0.14296538 -0.047998022 0.60370517 -0.35707176 -0.18574744 0.29939494 0.23535363
0.5645879 -0.030337004 0.58323425 0.07007624 1.015209 -0.25308612 -0.82406545 0.48396176
0.3758219 -0.35830274 0.32846695 -0.25135732 0.13385023 0.105833225 -0.15433031 0.09320251
-0.40069744 0.7986744 0.9341661 0.71609384 0.124597445 0.93336165 -0.041422963 0.05885667
0.3143085 0.16088018 -1.1281046 -0.41939297 0.7388759 0.3734062 -0.033793252 0.041798417
0.10831981 -0.5294628 0.014563373 -0.15472434 -0.23203187 0.022450594 0.18019177 -1.5753245
0.10017107 0.35003218 -0.2895238 -0.07384232 -0.42137066 0.5209524 0.15599896 0.043717384
-0.49819845 -0.2726443 0.3449837 0.19492492 -0.5703947 0.27219424 -0.8773311 0.14575215
1.1793488 0.54663837 -0.80566686 1.2113395 -0.026294433 0.60818505 -0.092416525 -0.21351442
-0.017463384 -0.33660206 -0.39098737 -0.6308531 -0.17240435 0.073214 -0.29203802 -1.0621338
0.18416652 -0.2599685 0.60833335 0.6609759 -0.18352519 -0.5086977 0.13458054 -1.1644205
0.17372248 0.6364536 -0.053463407 -0.1117319 0.7088773 0.09489076 -0.32095274 0.09432954
-0.6423946 -0.038924497 -0.43412587 0.3850127 0.18924543 -0.44272637 -0.092023805 -0.041089825
-0.8309769 -0.40724647 0.48284736 0.21696168 0.046722095 1.005165 -0.8579234 0.38318658

lstm_act.weight_hh_l1 f4 [100, 25]
00000000: a9bd 883e 0365 6bbd da64 0abe d67e 4bbe
00000010: 7633 c33d d9c7 ab3e 5537 e4bc 3854 84be
00000020: 6314 adbd 35b4 b7be 2697 c4bd 11fc aab9
00000030: 0369 703d 1984 ecbe b1de afbe 5006 1ebf
00000040: a6ba 2abe 398a 49be 4b07 3e3e 6db5 c13e
00000050: 15c1 cebe 4c30 b13d 7e9b 203e 88dc 37bf
00000060: d8fb 3b3d b648 42be 9710 58bf cd76 a13e
00000070: 3f0e 1abe cea6 c43e 05c7 063f 8327 823d
00000080: 72af 55be 98dc 453c e6a7 4b3f 2d4c e5bd
00000090: 2690 863e 8d23 04bf c947 063e 93d4 02be
000000a0: 79e9 813e 323f 0f3f ffda f639 9fb5 3fbf
000000b0: 20c0 5d3e 9a6c 793e 09fb 81be de29 84bd
000000c0: 03ab 4b3d ea57 edbe 41ca 56be d54c 80be
000000d0: 9417 eb3f 7ea4 80be 8ea8 3fbc 8545 9abe
000000e0: eb75 e63d 954b 523e ad10 12be c51c 7abc
000000f0: 0270 eb3d b566 fd3e 5fd4 88be 30a6 bfbe
00000100: f846 86be 3b97 8c3e 7513 e13d 4395 c6be
00000110: 8960 373f 7f11 84bd 6367 edbd f556 4b3e
00000120: 1fb2 c4bd 2925 ab3d 4aee b73e 162f 07be
00000130: 85e3 a7bb 8b29 513d ee47 98bf 5543 43bf
00000140: ea96 6dbe db71 923d 1807 d6be 126e cf3e
00000150: 4521 313f dc47 8cbe f776 4b3a 1930 433f
00000160: ce9c af3e b76b a83e edd5 6dbe 4834 75bf
00000170: 352f bcbc e194 093f 60f1 3a3e 40a4 0a3e
00000180: 77b8 823c 1378 4fbe a7f1 dabd 9c9f 9a3e
00000190: ac0e adbe c57e a6bd e0dc b73e 8951 773e
000001a0: 1304 943f e5b8 6b3e 3ae0 d2be e6b4 5f3e
000001b0: 6ba7 803e 861d a7be 968e 6e3d 6c00 00be
000001c0: 6579 3dbe 4166 5cbc 363c c53d 98eb 933d
000001d0: ff96 a43e df51 8fbe 2c70 d1be c5a6 663d
000001e0: ada2 adbe 3bf6 203e 553d 903d 467e 163d
000001f0: cbd8 51be 8b43 4a3e 2662 5f3d 31d8 bfbe
00000200: 58b6 243e 0237 033d 7056 4a40 a5c5 d9be
00000210: b997 fdbd f968 dcbd 4b32 aa3c 7b7b ccbe
00000220: d3df 93bb 3f6a a43e 8be5 083e 57b8 ba3e
00000230: bf26 163e 97f4 04be 793a dfbe 530e 03bf
00000240: 92da 093e bf60 8c3d cf69 e63e 9078 8c3e
00000250: 9fe3 883e 356f 37be 0ac1 073f daff 2d3e
00000260: 1bc6 cbbd 0db8 ed3e 4b98 9fbd 66b8 ad3e
00000270: 13a6 7c3f 685e 23be 90c2 42be 4ed6 523f
00000280: 1e6e 64be e14d 5c3d 0c34 efbb efd3 b83e
00000290: 2220 1a3d f4f0 933d 980a 96be 5cef 333e
000002a0: 6c91 1cbe 3725 c1be 67bb 25be 9682 b5be
000002b0: b556 4d3c d1aa 203e e355 14bc b0aa 13be
000002c0: f628 ebb8 4043 313c 490f 44ba 8082 0140
000002d0: e4d8 b73c 3f45 77be 1f19 db3e db9f 9dbe
000002e0: fb62 a9bd 3e85 1a3e de6e 2ebe 3c51 173e
000002f0: 4da8 1fbd c055 253e fa29 613e 6489 d43e
00000300: 6634 8abd a071 cdbe 41b1 ae3e e578 9ebe
00000310: b0ab ebbe f860 cdbe c074 a1be dad3 bb3d
00000320: a003 d33d 7e4e 1cbd 7670 cf3e cc7a 3b3f
00000330: fe0a 31bc 2313 a63d 9245 e13b e30a 0a3f
00000340: ba0b 53bf 8211 9c3d 55fd 81be 7580 a03e
00000350: c4e2 28be 0e23 cfbb 09b4 c93c 4852 57bc
00000360: 5ea3 b63d 7e06 8ebe 3f5e 6abe ebee 7b3e
00000370: 6d2e 7b3e 95a3 0f3f 7f80 fcbd fb29 f9bd
00000380: 4b04 a83e f4e3 5d3c 6d64 ab3e 7312 f23c
00000390: 941f 29be c6ac b23d 293d 77be c0b6 9c3e
000003a0: 1f8e acbc f85d 3a3e 3424 ad3f 4e89 adbe
000003b0: bff3 66be 58b8 03bd 3a3c 10be 1a75 76bd
000003c0: d1c6 903e b4cd 0a3f 5b76 27bd 9a40 78bf
000003d0: ea96 6d3e 77df 013e 824d c43e edab d8be
000003e0: 1442 193d e263 903d a297 12be ff3a 173e
000003f0: d477 01be 8623 0b3e 67f4 df3d 2d2a 8c3e
0.267072 -0.05746938 -0.13515034 -0.19872603 0.095313 0.3355091 -0.027858416 -0.25845504
-0.08451154 -0.35879675 -0.09599142 -0.0003261273 0.058693897 -0.46194533 -0.34349588 -0.6172838
-0.16672763 -0.19681634 0.1855747 0.3783373 -0.40381685 0.0865179 0.15684316 -0.7182088
0.045894474 -0.1897305 -0.84400314 0.3153595 -0.15044497 0.38408512 0.5264743 0.063551925
-0.20867708 0.012076519 0.7955307 -0.1119617 0.26281852 -0.51616746 0.13113321 -0.12776403
0.25373438 0.55955803 0.0004708394 -0.74886507 0.21655321 0.24357834 -0.25386837 -0.06453298
0.049723636 -0.46356136 -0.20975591 -0.25058618 1.836657 -0.25125498 -0.011697901 -0.30131164
0.1125296 0.20536645 -0.14264174 -0.015265648 0.11495973 0.49492422 -0.26724526 -0.37431479
-0.2622602 0.2745913 0.10990039 -0.38785753 0.71631676 -0.064486496 -0.11591985 0.1985739
-0.096042864 0.08356697 0.35923988 -0.13201556 -0.005123558 0.05106501 -1.1896951 -0.76274616
-0.232021 0.071506225 -0.41802287 0.40513664 0.6919139 -0.27398574 0.00077615626 0.76245266
0.3429932 0.3289468 -0.23226137 -0.957829 -0.022971729 0.53742796 0.1825614 0.13539219
0.0159571 -0.20260648 -0.10690623 0.30199897 -0.33800256 -0.08129648 0.35910702 0.24152197
1.1563743 0.2301975 -0.41186696 0.21846351 0.2512773 -0.32639712 0.05824145 -0.12500161
-0.1850334 -0.013452114 0.09630625 0.0722267 0.3214645 -0.2799215 -0.40905893 0.056311388
-0.33913174 0.1571893 0.07042948 0.036741517 -0.20492856 0.19752328 0.05453696 -0.37469628
0.16085184 0.03203488 3.1615257 -0.42533603 -0.123824544 -0.107622094 0.020775935 -0.39937958
-0.004512766 0.3211231 0.13368814 0.36468765 0.14663218 -0.12983929 -0.435993 -0.5119373
0.13462284 0.0685439 0.450026 0.27435732 0.2673616 -0.17913516 0.5302893 0.16992131
-0.09949895 0.46429482 -0.077927195 0.33929747 0.9869091 -0.15953982 -0.19019532 0.82358253
-0.22307631 0.05378521 -0.0072999056 0.36099193 0.0376283 0.072236925 -0.29304957 0.17571777
-0.15289849 -0.37723705 -0.1618477 -0.35451192 0.01253288 0.15690161 -0.00905368 -0.14420581
-0.00011213303 0.010819256 -0.00074790843 2.02359 0.022442289 -0.24147509 0.42792603 -0.30786023
-0.08270832 0.1508989 -0.1703448 0.14777082 -0.038978864 0.16145992 0.21988669 0.4151107
-0.067482755 -0.40125751 0.3411961 -0.3095161 -0.46029425 -0.40113044 -0.31534386 0.09171267
0.10303426 -0.038160793 0.40515488 0.7323425 -0.010805843 0.08109119 0.0068747485 0.5392286
-0.8243977 0.07620527 -0.2538859 0.31348005 -0.16492754 -0.0063213175 0.02462198 -0.013142176
0.089178786 -0.27739328 -0.22887515 0.24602859 0.24529429 0.5610898 -0.12329196 -0.1216621
0.32815775 0.013543118 0.33475056 0.029549813 -0.16515952 0.0872436 -0.24144424 0.30608177
-0.021063862 0.18199909 1.3526673 -0.33893818 -0.2255392 -0.032158226 -0.14085475 -0.06017027
0.28276685 0.5422013 -0.040884357 -0.96973574 0.232021 0.12682901 0.38340384 -0.4231867
0.037416533 0.07050301 -0.14315656 0.14768599 -0.12643367 0.1358777 0.10935288 0.27375928

lstm_act.bias_ih_l1 f4 [100]
00000000: a651 b1bd f737 023f 66d1 673e bd72 183e
00000010: cb62 7bbe 02f3 a5bd 559c 0b3f f68e f5bd
00000020: 90da 743d 195e 363d a62f 593e c9ee e13e
00000030: 80bd d13e a31a 9e3e cda0 173c e8eb 973d
00000040: fd0d b33e 09e9 853d 1114 44be b9be 84bc
00000050: 1b2d 163f 3307 9d3e 5c7f c53e cec9 a33e
00000060: 00e0 f53e e1c8 293e 58c0 4b3e f9c6 e63e
00000070: da88 453e 51ff 723e 7136 8d3e 95c3 993e
00000080: 0dc9 98be 52fd 8d3d 4bb5 603e 2b4c 91bd
00000090: a588 993d a866 d23d 7e96 f73e 0302 f8bb
000000a0: 1456 0a3e a15c 5e3e d3b7 f63d 342b 08be
000000b0: 76aa 083d 1cac 3e3e 79a0 013e 9848 3b39
000000c0: 8b59 6d3e 9962 063b d8af 9dbc dd66 593d
000000d0: dca4 083e 9333 03be 3958 e1bd 6e25 86be
000000e0: 66dd f63c 48e1 a6bd c034 ba3b 1826 a13e
000000f0: 62de 423d 7098 4e3d 2483 c1bd d62d f23d
00000100: 4aed adbd f966 093e 67b9 c3be a27b bbbd
00000110: 138e 51be 92ba 4ebd c9b2 433d 40e3 a4bd
00000120: e986 403d e1d0 b63d d401 06bc 12a4 e63e
00000130: 5bd6 9d3f 70c7 903f 9f34 103f d160 473f
00000140: 1dc9 e33e b579 853f 6be5 1b3e 1f5d 843f
00000150: 2c06 9c3e 3e32 6c3f 87cd 623f 412f de3e
00000160: cf6e 8a3f fb41 4a3f 31dd 4b3f ee39 613f
00000170: a116 933e bc0d c03e a675 d03e 05e8 633f
00000180: db83 4b3f d0a0 103f 838d 8d3f 9db4 3a3f
-0.08658151 0.50866646 0.22638473 0.14887519 -0.24549405 -0.08102991 0.5453542 -0.11990158
0.05977875 0.044523332 0.21209583 0.4412749 0.4096489 0.30879697 0.0092546465 0.074180424
0.3497161 0.065385886 -0.1914828 -0.016204225 0.58662575 0.30669555 0.3857373 0.31989902
0.4802246 0.16580535 0.19897592 0.4507368 0.19290486 0.23730208 0.27580598 0.3003203
-0.2984089 0.06933083 0.21944158 -0.07094606 0.07496766 0.102734864 0.48357004 -0.007568599
0.13509399 0.21715023 0.120467804 -0.1329773 0.03336569 0.18620342 0.12658872 0.00017860753
0.23178689 0.0020505546 -0.019248888 0.053076614 0.13344139 -0.12812643 -0.11003155 -0.26200432
0.030134868 -0.08148438 0.005682558 0.31474376 0.047575362 0.050438344 -0.09448841 0.11825149
-0.08492525 0.13418187 -0.38227388 -0.091544405 -0.20464353 -0.050470896 0.047777925 -0.08051157
0.04700366 0.08926559 -0.008179147 0.4504705 1.2331041 1.1310863 0.56330293 0.77882105
0.44489375 1.0427767 0.15224235 1.0340918 0.3047346 0.92264163 0.8859486 0.43395427
1.0815066 0.7900693 0.79634386 0.8797902 0.28728202 0.37510478 0.4071476 0.8902591
0.7949807 0.5649538 1.1058811 0.72931844

lstm_act.bias_hh_l1 f4 [100]
00000000: a651 b1bd f737 023f 66d1 673e bd72 183e
00000010: cb62 7bbe 02f3 a5bd 559c 0b3f f68e f5bd
00000020: 90da 743d 195e 363d a62f 593e c9ee e13e
00000030: 80bd d13e a31a 9e3e cda0 173c e8eb 973d
00000040: fd0d b33e 09e9 853d 1114 44be b9be 84bc
00000050: 1b2d 163f 3307 9d3e 5c7f c53e cec9 a33e
00000060: 00e0 f53e e1c8 293e 58c0 4b3e f9c6 e63e
00000070: da88 453e 51ff 723e 7136 8d3e 95c3 993e
00000080: 0dc9 98be 52fd 8d3d 4bb5 603e 2b4c 91bd
00000090: a588 993d a866 d23d 7e96 f73e 0302 f8bb
000000a0: 1456 0a3e a15c 5e3e d3b7 f63d 342b 08be
000000b0: 76aa 083d 1cac 3e3e 79a0 013e 9848 3b39
000000c0: 8b59 6d3e 9962 063b d8af 9dbc dd66 593d
000000d0: dca4 083e 9333 03be 3958 e1bd 6e25 86be
000000e0: 66dd f63c 48e1 a6bd c034 ba3b 1826 a13e
000000f0: 62de 423d 7098 4e3d 2483 c1bd d62d f23d
00000100: 4aed adbd f966 093e 67b9 c3be a27b bbbd
00000110: 138e 51be 92ba 4ebd c9b2 433d 40e3 a4bd
00000120: e986 403d e1d0 b63d d401 06bc 12a4 e63e
00000130: 5bd6 9d3f 70c7 903f 9f34 103f d160 473f
00000140: 1dc9 e33e b579 853f 6be5 1b3e 1f5d 843f
00000150: 2c06 9c3e 3e32 6c3f 87cd 623f 412f de3e
00000160: cf6e 8a3f fb41 4a3f 31dd 4b3f ee39 613f
00000170: a116 933e bc0d c03e a675 d03e 05e8 633f
00000180: db83 4b3f d0a0 103f 838d 8d3f 9db4 3a3f
-0.08658151 0.50866646 0.22638473 0.14887519 -0.24549405 -0.08102991 0.5453542 -0.11990158
0.05977875 0.044523332 0.21209583 0.4412749 0.4096489 0.30879697 0.0092546465 0.074180424
0.3497161 0.065385886 -0.1914828 -0.016204225 0.58662575 0.30669555 0.3857373 0.31989902
0.4802246 0.16580535 0.19897592 0.4507368 0.19290486 0.23730208 0.27580598 0.3003203
-0.2984089 0.06933083 0.21944158 -0.07094606 0.07496766 0.102734864 0.48357004 -0.007568599
0.13509399 0.21715023 0.120467804 -0.1329773 0.03336569 0.18620342 0.12658872 0.00017860753
0.23178689 0.0020505546 -0.019248888 0.053076614 0.13344139 -0.12812643 -0.11003155 -0.26200432
0.030134868 -0.08148438 0.005682558 0.31474376 0.047575362 0.050438344 -0.09448841 0.11825149
-0.08492525 0.13418187 -0.38227388 -0.091544405 -0.20464353 -0.050470896 0.047777925 -0.08051157
0.04700366 0.08926559 -0.008179147 0.4504705 1.2331041 1.1310863 0.56330293 0.77882105
0.44489375 1.0427767 0.15224235 1.0340918 0.3047346 0.92264163 0.8859486 0.43395427
1.0815066 0.7900693 0.79634386 0.8797902 0.28728202 0.37510478 0.4071476 0.8902591
0.7949807 0.5649538 1.1058811 0.72931844

linear_act.weight f4 [39, 25]
00000000: e30e 8d3a aa56 36bc 7b80 1abc b891 92bb
00000010: fd4f 6dba b748 0bbc 4bc2 013c 2d4d a2bb
00000020: f101 b93a 9cb4 a6bc 3fe2 d0bb 0429 abbc
00000030: b677 8f3c 5bea cdbb 40de d03c 122f 7fbc
00000040: 4581 9d3b ec0b 053c dda3 b73c 860d 35bc
00000050: 219a dcbb 75fa 573a 06eb a03c 1515 cf3b
00000060: b302 a7ba 4412 bc3e 71a6 863f ad5e 193e
00000070: bc3f 0e3f c61d 963e 2bc5 8c3d 440a 39be
00000080: 0688 3dbf d949 31be b660 7bc0 7578 29bf
00000090: f672 fdbf 4d99 e03e 210d 1ebf ef42 4040
000000a0: f6a3 1fc0 8161 96be b689 06bf dcd9 8ebe
000000b0: 4b65 54bd 76b2 973d 3b45 443f 994e 94be
000000c0: 618c febe ccae 9a3f e20e 8d3a aa56 36bc
000000d0: 7b80 1abc b891 92bb fd4f 6dba b848 0bbc
000000e0: 4bc2 013c 2c4d a2bb f101 b93a 9cb4 a6bc
000000f0: 40e2 d0bb 0429 abbc b577 8f3c 5bea cdbb
00000100: 40de d03c 122f 7fbc 4581 9d3b ec0b 053c
00000110: dda3 b73c 870d 35bc 219a dcbb 77fa 573a
00000120: 07eb a03c 1515 cf3b bf02 a7ba 832f 23c0
00000130: 4e3d 123f e6f7 92bf 533a 8d3e 7677 b1be
00000140: b1cb 18c0 0a28 f3bd 5913 9f3d b698 37be
00000150: 2791 4ec0 863c 033f 21ae 8cc0 cc7b 0a40
00000160: 88db 5a3f 7caa 1a3e cfee 92c0 818a ee3e
00000170: 72e3 bf3e ccc8 0941 a4fa f1bf 41d5 6dbe
00000180: f0f9 1dbe dede c43f 706e 8fbd 3e8c fb3f
00000190: 7a07 7a3e 9cc9 8fbd 2450 ec3d 8d74 163e
000001a0: 13e1 08be 1746 bdbe 2c41 19bf 4a27 bb3d
000001b0: 96ff 30be c5b9 ebbe f646 65bf 8df8 76bd
000001c0: 4cec 993e 59da d43f 815f 1fbe 8554 96c0
000001d0: 3e3b 673d 3546 403f 91d1 833f 3454 0dc0
000001e0: 44fc 98bf cdca 833d 3ee6 9c3e 8525 47bf
000001f0: 9a5d 61be 9368 30bf f4d2 2a3b b60a 103d
00000200: 4837 9bbe 32ce 9d3d 1be3 ccbf 56ab 843f
00000210: 1096 3abf 0ca3 1b3d 6325 64bd 49de 823f
00000220: 3046 1abe a74f b6be ce91 4fbf a939 4fbe
00000230: a7e7 0fc0 89af b0be e811 36bf 8271 963f
00000240: 1554 9a3b ecbf 59bf 19bb 423c ee05 b23f
00000250: 6fc9 12bf a8e3 85be 62bb 13bd bfd2 93bd
00000260: 405a 94bd 7e91 4a3e a67e 9fbd 0ca0 063f
00000270: a81c 0640 fedb 33be 68aa 0bbe e5cb e6be
00000280: 901e b13f 8609 f23d 1b4a 823d 4703 91bf
00000290: 1495 2abe f24d 01c0 00e4 e8bd c647 87bf
000002a0: b2f6 bf3e 4f90 c4be ff75 64bf 3411 f93d
000002b0: 529b 7e3f b5cb 2ebf bf28 e0be 6ffa 563d
000002c0: 5800 9fbf 6f07 dcbf 8e0c e33e f9e7 7b3d
000002d0: 9515 be3e 9ee9 4f3d 5e1e 72bf 1165 783f
000002e0: 414f 11c0 bd53 c1be df48 fb3d 293d dbbe
000002f0: 53a1 95be 7a93 bd3e dd27 9abe 0c11 46bf
00000300: 3411 debd 53b9 5b40 46f4 9e3e 2f54 953d
00000310: edfd 47bf 6894 563e 34e3 d7bd ae0f 41bd
00000320: 95e4 b7be 855f 76bf 1ed8 8fbf 2e66 013f
00000330: 22cd 983d dc94 1dc0 1b09 a93d 572a 1cbf
00000340: df32 813f 2e91 a4bf 125c 9c3d d996 8d3e
00000350: 03c0 35bf 1ee7 6ebe 2cb7 473f 25d0 74bf
00000360: 70df 3abf 35a2 123f 4fdc 4c40 30f5 48bf
00000370: 7249 8dbe 1c21 15bf 4473 903d 3e15 483e
00000380: b71d 1ebf 2c17 02be bb0d bc3f 4061 583f
00000390: 576d 3b3f 9f38 39be 55f3 54be 7056 41be
000003a0: 07f1 893e dab9 74bf 2f10 dcbf d147 c7be
000003b0: 4d08 5bbc 0b7a 03bf fbf4 3c3d 839c 8b3d
000003c0: 96b2 a3be cc5e 1ebe b745 703e 3b02 8040
000003d0: 5e82 dd3d 8350 babb f7a4 89bf 9add b53e
000003e0: 5a9b 7cbe e770 9bbe c158 e83e 7131 423d
000003f0: 360e 3cbc 53d0 00be 5a42 cbbf 2517 0ebe
0.0010761883 -0.011129061 -0.009430046 -0.0044729374 -0.00090527517 -0.008501223 0.007919858 -0.0049530477
0.0014114958 -0.020349793 -0.006374627 -0.020893581 0.017513137 -0.006284041 0.025496602 -0.015575187
0.00480667 0.008120518 0.022417003 -0.0110505875 -0.006732241 0.000823892 0.019643318 0.006319652
-0.0012741893 0.36732686 1.0519544 0.14977522 0.55566 0.2931959 0.06873544 -0.18070322
-0.7403568 -0.17313327 -3.9277778 -0.6619943 -1.9800708 0.4386696 -0.61738783 3.0040853
-2.4943824 -0.29371265 -0.5255388 -0.2790059 -0.051854413 0.074070856 0.7666814 -0.28966215
-0.49716476 1.2084594 0.0010761882 -0.011129061 -0.009430046 -0.0044729374 -0.00090527517 -0.008501224
0.007919858 -0.0049530473 0.0014114958 -0.020349793 -0.0063746274 -0.020893581 0.017513135 -0.006284041
0.025496602 -0.015575187 0.00480667 0.008120518 0.022417003 -0.011050588 -0.006732241 0.00082389213
0.01964332 0.006319652 -0.0012741907 -2.549775 0.57124794 -1.1481903 0.2758356 -0.34661454
-2.3874323 -0.11872871 0.07767362 -0.17929348 -3.2276094 0.51264226 -4.396256 2.163806
0.8549123 0.15104097 -4.5916514 0.46590045 0.37478215 8.611523 -1.8904614 -0.23225881
-0.15427375 1.5380514 -0.07003486 1.9652174 0.24416915 -0.07020876 0.11538723 0.14692898
-0.13367109 -0.36967537 -0.5986507 0.09138353 -0.17284998 -0.46040168 -0.895614 -0.06029563
0.30063093 1.6629134 -0.15563776 -4.6978173 0.056452982 0.7510713 1.029833 -2.2082644
-1.1951985 0.064351656 0.3064441 -0.77791625 -0.22008362 -0.6890957 0.002606568 0.035166465
-0.30315614 0.07705344 -1.6006807 1.0364788 -0.7288523 0.03799729 -0.055699717 1.0224086
-0.15065837 -0.35607645 -0.81081855 -0.2023684 -2.248514 -0.34508923 -0.7112107 1.175339
0.0047097304 -0.85058475 0.011885428 1.390806 -0.57338613 -0.2615025 -0.036067374 -0.07217931
-0.07243776 0.19782063 -0.07787828 0.5258796 2.095499 -0.17564389 -0.13639224 -0.45077434
1.3837452 0.11818223 0.06361791 -1.1329125 -0.16658431 -2.0203824 -0.113716125 -1.0568779
0.374929 -0.3839135 -0.8924255 0.12161484 0.9945575 -0.6827958 -0.43781087 0.052484926
-1.242198 -1.7189769 0.44345516 0.061500523 0.3712584 0.050759904 -0.94577587 0.97029215
-2.2704623 -0.377592 0.122697584 -0.428201 -0.29224643 0.37026578 -0.30108538 -0.7736976
-0.10843125 3.4331863 0.3104574 0.07291447 -0.78121835 0.2095505 -0.105413824 -0.047134094
-0.35916582 -0.962395 -1.1237829 0.5054654 0.07461001 -2.4622107 0.0825369 -0.61002105
1.009365 -1.2856805 0.076347485 0.2765415 -0.7099611 -0.23330352 0.78013873 -0.95630103
-0.7299719 0.5727876 3.2009466 -0.78499126 -0.27595097 -0.58253646 0.07053235 0.19539353
-0.6176409 -0.12704152 1.469169 0.8452339 0.73213714 -0.18088005 -0.20795949 -0.1888063
0.26941702 -0.95596087 -1.7192439 -0.3892198 -0.013368678 -0.513581 0.04613207 0.068169616
-0.31972188 -0.1546585 0.23464094 4.0002723 0.10815881 -0.0056858673 -1.0753468 0.3552063
-0.24668637 -0.30359575 0.45380214 0.047410432 -0.0114779975 -0.1257947 -1.5879624 -0.13876016

linear_act.bias f4 [39]
00000000: 4b85 9fc1 6703 aec0 4b85 9fc1 9fea 30c0
00000010: 08f8 aec0 b4ae 18c1 9e65 fac0 f645 dac0
00000020: 1f7c 09c1 557f c1c0 17a5 e4c0 9601 c6c0
00000030: 450f e4c0 715b b8c0 5e6a b1c0 1d8f c6c0
00000040: 7baa bcc0 f685 06c1 3772 dac0 de0a d8c0
00000050: 85b6 bdc0 1b8d 15c1 de8c 02c1 9260 97c0
00000060: 9a58 e1c0 88a0 97c0 7462 e4c0 36b7 f4c0
00000070: 10dd cec0 664d cec0 8ce8 b4c0 153f f6c0
00000080: 08e2 c1c0 09a6 d4c0 3620 e0c0 55ae dec0
00000090: 9006 cac0 49e5 d7c0 b8fb 23c1
-19.940084 -5.4379153 -19.940084 -2.7643201 -5.4677773 -9.542652 -7.8249044 -6.82104
-8.592803 -6.0467935 -7.1451526 -6.1876936 -7.126864 -5.7611623 -5.5442343 -6.20497
-5.8958106 -8.407705 -6.8264422 -6.7513266 -5.92853 -9.34695 -8.159391 -4.7305384
-7.0420656 -4.738346 -7.137018 -7.6473646 -6.464485 -6.446948 -5.653387 -7.6952004
-6.0588417 -6.645268 -7.003932 -6.958781 -6.313301 -6.746739 -10.248955
